best_model.pt (torch, 28644 bytes, 8 tensors)

conv.0.weight f4 [32, 64, 1]
00000000: 44b8 c33d 4a83 d43d 08bc efbc cefd ea3d
00000010: 1fe7 e0bc ed58 ce3c 862e 7abd 327b 963d
00000020: e4f9 e13d a985 bbbd 5fc8 de3d 02df bf3c
00000030: d317 bd3d b9fc 893c 6e95 773d 085a 8ebc
00000040: 0bc0 c53d 71bd 983c 458c 6ebd 89d7 023d
00000050: f716 6cbd 134c 6dbc c2db 4fbd 6906 aa3d
00000060: 45de c9bd d03d 6cbd fcfd 10bd 7212 9abd
00000070: ca6f 403c feea fcbd 7d0a e73d 53a6 d9bd
00000080: 9aa3 c53d d6e6 a93c 71ba 26bd 71fc 9d3d
00000090: 19ed 9d3c 5eba ce3d c59b 613c dae0 21bd
000000a0: ca29 0a3d 70ed 0abd 28c7 573d d5d2 e43d
000000b0: 325f 943d 187a 5fbd 735f 943d cbee b93c
000000c0: 3eb8 823d d577 9bbd 62df fcbd ddc8 44bd
000000d0: b710 c4bd 4b1e d23d 7912 143d 9e75 553d
000000e0: e34b 233d 89a8 f2ba 70b0 c83d b6a8 b5bd
000000f0: 09f4 053c dc55 aebd c39e 1e3d df99 2fbd
00000100: 0853 1d3d 0abb d4bc 3e40 d43d d031 98bd
00000110: d7fb 98bd 36e8 98bd eaa8 e53d 803b 2b3d
00000120: 8eb7 f63d b11a d3bd 00cf fdbd 7670 c8bd
00000130: 0954 acbd 1c0c 4f3d dcd9 373d 716f d53d
00000140: 5ad1 83bd 8c47 aebd 5300 883d 8cfe 4ebd
00000150: be3a 9b3d 687d efbc 5bd5 923d 5f67 c6bd
00000160: d48c 80bd 9916 1d3d 8b2d d73c 2b69 03bd
00000170: 2261 993d 7b72 ae3d ca46 b9bd c2fa 88bd
00000180: 3d43 ea3d a161 2dbd 7696 36bd 8c2f f8bd
00000190: e34f 93bd 0a04 003d 83ae 83bc 4749 babd
000001a0: f365 603b 43f8 aebd f7b1 d8bd edbe 8cbd
000001b0: 0b75 dfbd 3bbf a2bd 1165 003e 8fdf c43c
000001c0: 7c1d 1f3d 9f24 eebd 8b82 a7bd 844e 29bd
000001d0: 9229 a13c da2b e1bd aa16 5cbd 7d2e 98bd
000001e0: 1457 643a 5330 3dbd 9f2b 0abc e121 adbd
000001f0: 1f0e afbd 4d45 95bd 94bf 2ebd 5aae c9bd
00000200: f6a5 d63d 283a cbbc f642 dc3d b087 1f3d
00000210: b0c7 d8bd 3829 b13d c8df 0cbd 5043 44bd
00000220: 807f d4bd 5081 febd 187d 123d c0af dfbc
00000230: 5c55 473d 0017 d2bd d60f be3d f2ea bbbd
00000240: 48d1 b0bc f0e1 d53c 1429 843d e4ab ce3d
00000250: a034 e93d f2fc cabd 88da 003d 7839 5cbd
00000260: 006e 60bc 0c9d bfbd 082e e93d 2ee4 bbbd
00000270: ccd1 883d e4ef 333d a060 263d ca67 8abd
00000280: 0cb1 e83d 4006 e13c 38ba 833c ea99 e1bd
00000290: 84ee 563d 009f 99bc 448f 6abd ece3 db3d
000002a0: b04c e43c 86a3 8dbd 5292 81bd 809b c3bb
000002b0: c4f0 8e3d 54d5 02bd 3211 92bd ac54 2fbd
000002c0: 4c40 bfbd 8898 363d 8027 c63d 3c02 f1bd
000002d0: 20d3 ed3c 5c3f 843d 68ae b93c f855 36bd
000002e0: 009e 853d 0888 863d 6473 3f3d 50f0 b3bc
000002f0: 0894 07bd d018 5b3c d0e4 b4bc 9893 18bd
00000300: 59d3 a33d 917d dc3d 0738 48bc 64af e4bc
00000310: 2f48 f33a eb37 f4bb 6926 f43c 8fee 0f3d
00000320: 2a26 e8bd 98c2 3bbd cff4 d73d 41b2 473d
00000330: d11a cbbb 885a 9abd 3f4c 9cbd fac9 e4bd
00000340: a93c 26bd f462 2d3d 1655 a33d fb74 6c3d
00000350: c8a4 e2bd feaa 98bd 8369 9ebc 4445 f83d
00000360: cfb3 973c fdb9 02bd b9a5 543d b2dc 41bd
00000370: bee4 a4bd 1976 bb3d 6f09 67bd a3ee cbbc
00000380: 4217 febd 13ad ab3d 4a04 c23d 6ef9 3a3d
00000390: fd0f b2bd 584b fcbd e8d8 cebd 9ac9 be3d
000003a0: cd46 783d 2a5a d73d 71a1 863d da30 023d
000003b0: 6d9e 81ba a891 c2bd 699a dabd 7809 efbd
000003c0: e1bb 523d 089e 7abd a997 ccbc af00 93bd
000003d0: 3ea6 babc 0873 b4bd 2a3a a7bd b90a 2b3d
000003e0: 223b 17bd 0760 9e3d 0b2b 24bd 4ccb bbbd
000003f0: 37e4 b3bc 4b44 78bd 73ff 1cbd 4d54 f3bd
0.0955663 0.10376604 -0.029264465 0.11474191 -0.027453957 0.025188887 -0.061079524 0.073477164
0.11033991 -0.09156353 0.108780615 0.023421768 0.0923306 0.01684414 0.06044524 -0.017376915
0.0965577 0.01864502 -0.05823924 0.03194383 -0.05763909 -0.01448347 -0.050746687 0.08302004
-0.09856848 -0.057676136 -0.03539847 -0.075230494 0.011745403 -0.12349509 0.11281297 -0.10627427
0.09650345 0.020739954 -0.040705148 0.07714165 0.019278096 0.100941405 0.0137700485 -0.039521076
0.03373126 -0.033917844 0.052680165 0.111730255 0.072447196 -0.054559797 0.07244768 0.022696873
0.06382798 -0.075912155 -0.123472944 -0.04804312 -0.095735006 0.10259684 0.03615043 0.05211412
0.039867293 -0.0018513362 0.09799278 -0.0887007 0.008175858 -0.0851247 0.038725626 -0.042871352
0.038409263 -0.025968093 0.10363816 -0.07431376 -0.0746991 -0.07466166 0.112138584 0.04180479
0.12046729 -0.10307825 -0.12392998 -0.09787075 -0.08414466 0.050548658 0.0448855 0.104216464
-0.06436415 -0.0850974 0.06640687 -0.050535724 0.075795636 -0.029234603 0.071696006 -0.09687685
-0.06276861 0.03835163 0.026266834 -0.032082718 0.0748923 0.08517929 -0.09046705 -0.06688453
0.11438606 -0.042329434 -0.044577084 -0.12118444 -0.071929716 0.031253852 -0.016074425 -0.09096008
0.0034240454 -0.08543446 -0.10580819 -0.06872354 -0.10910996 -0.079466306 0.12538554 0.024032382
0.038846478 -0.11628079 -0.08179196 -0.041334644 0.019673143 -0.10994692 -0.05373255 -0.07430742
0.00087104854 -0.046188664 -0.008433252 -0.084537275 -0.08547615 -0.07288609 -0.042663172 -0.09847708
0.10480873 -0.024808004 0.10754959 0.03894776 -0.10584962 0.0865044 -0.034393102 -0.047915757
-0.10375881 -0.12427008 0.03576383 -0.027305484 0.04866539 -0.10258293 0.09280364 -0.09175672
-0.021584168 0.026108712 0.064531475 0.10091379 0.113869905 -0.09911527 0.031458408 -0.053765744
-0.013698101 -0.09356126 0.11385733 -0.09174381 0.066806406 0.04392995 0.040619493 -0.067580774
0.11361894 0.0274688 0.016080007 -0.11015685 0.05247356 -0.018752575 -0.057265535 0.10736832
0.027868599 -0.06915955 -0.063267365 -0.005969465 0.06979516 -0.031941727 -0.07132186 -0.04280536
-0.093384355 0.04457906 0.09675503 -0.11768004 0.029031336 0.06457397 0.022666171 -0.04451558
0.06524277 0.06568915 0.046740904 -0.021965176 -0.033100158 0.013372615 -0.022081763 -0.03725013
0.07999296 0.107661374 -0.012220389 -0.027915664 0.0018560941 -0.007452955 0.029803472 0.035139617
-0.11335404 -0.045839876 0.105447404 0.04875398 -0.006198265 -0.07536799 -0.0763173 -0.111713365
-0.040585194 0.042330697 0.07975213 0.05772875 -0.11066586 -0.07454489 -0.019337421 0.12122586
0.018518357 -0.031915653 0.051915858 -0.047329612 -0.080514416 0.09153385 -0.05640548 -0.024894064
-0.1240678 0.08382621 0.09473474 0.04564803 -0.08694456 -0.12319058 -0.10099965 0.09315796
0.060614396 0.10515244 0.06573761 0.03178487 -0.0009889134 -0.09500438 -0.10673983 -0.11671728
0.051448707 -0.061185867 -0.024974661 -0.07177865 -0.022784349 -0.08811003 -0.08165391 0.041758273
-0.036921628 0.077331595 -0.04008011 -0.09169635 -0.021959407 -0.060612004 -0.038329553 -0.118813135

conv.0.bias f4 [32]
00000000: ccab ec3c fae8 a13c 782d cfbc 5cce 363d
00000010: fa4c 243d 1a6d e6bd b438 97bd 4298 41bb
00000020: b4a4 833d c1a6 413d 2e64 98bd 34fb fdbd
00000030: 005e d5bb 301f 6abc 7191 263d a4cd 0cbd
00000040: 67a5 bf3d e287 bd3c 6b3c a33d a841 b2bd
00000050: 26bd a93b 7dcc 1b3c b809 80bd 46aa 843d
00000060: b2e8 fbbd 990d 9d3d ab1a a73c 4595 e3ba
00000070: def6 333d 2133 94bb 728e 823d b8f7 833d
0.028890513 0.019764412 -0.025290236 0.044630393 0.040112473 -0.11251278 -0.07383862 -0.0029540216
0.06427899 0.04727817 -0.07440983 -0.12401429 -0.00651145 -0.014289662 0.040666047 -0.0343758
0.0935772 0.023136083 0.07970508 -0.08703929 0.005180019 0.009509203 -0.06251854 0.064777896
-0.123002425 0.07668609 0.020398458 -0.0017363211 0.043936603 -0.0045226966 0.063748255 0.06443733

conv.2.weight f4 [64, 32, 1]
00000000: 3047 0dbe ae82 ef3d 50d8 d8bc 2c62 28bd
00000010: 50be 113d a795 0d3e 4acf c4bd 37fd f3bd
00000020: 0eaf e03d b709 aabd e41d 693d d859 d5bc
00000030: f04d 473d 7923 0a3e 187b b7bd 27af afbd
00000040: aa9f b13d 8094 1e3c 9861 9fbc 5701 1fbe
00000050: c15e 193e 205f dbbb ac5d 05bd fc9c 94bd
00000060: 5ce3 0ebd 96f6 af3d 4022 85bb 2fcf 1a3e
00000070: b037 27bc c0bf cfbc 725a cc3d 20e3 95bb
00000080: 5085 10bd 8401 723d e9c1 0e3e 70b1 343d
00000090: 1618 fc3d 6a9d ea3d 78c4 4c3d e0c0 7b3d
000000a0: f8a5 693d 6036 963c efff 193e 351b 273e
000000b0: b4e1 803d 30a3 10bc 054d 223e 1de4 0cbe
000000c0: 9502 053e 3ed1 bf3d 667a e83d 308a 5ebc
000000d0: e30e 07be cd20 013e ae4d 9ebd 8c83 3e3d
000000e0: 7a1c cd3d ce2a 29be e035 403c 0f9b 80bd
000000f0: bd7a 003e b382 e6bd a6d1 db3d a6c1 e13d
00000100: fabd c73d e1c7 2d3e 1853 db3c 9012 24be
00000110: 2d39 013e e892 843c c0e8 653b e46f 2cbe
00000120: acbd 22bd cfb8 afbd d54a 313e 17e4 003e
00000130: cd09 073e f6ef f73d 176b e0bd 0e7c 9bbd
00000140: 16af 8dbd 8722 91bd 49e9 0c3e 7804 763d
00000150: 810f 113e 807c 07bc 955d 21be 5812 52bd
00000160: 5a70 fe3d 4269 dc3d 5827 603d 5664 54bd
00000170: 4df5 28be 7588 c2bd 86c2 bc3d f607 92bd
00000180: 562d ad3d f0b3 453d f10d 8bbd 8a82 dc3d
00000190: 6eab 68bd 4072 c0bb bee7 89bd b5b5 2bbe
000001a0: 707f e93c 703c 513d 9c47 b6bd 6a17 de3d
000001b0: 6762 22be 977f 2ebe e19c dfbd a23e 7abd
000001c0: 50d4 a0bc 24ed 0bbd f23a a53d fedd 1ebe
000001d0: b83c d53c 00a1 483b 3040 3f3d 9df2 333e
000001e0: eed0 de3d 6576 c8bd 3556 14be c04c 2fbd
000001f0: bd9b b5bd 88ec 7c3d 0067 d43a 1d99 113e
00000200: 0636 8e3d e822 05bd 8017 c73b 0868 2d3d
00000210: 90b2 b3bc 1d12 123e 008a 0dbe b675 b03d
00000220: 83c7 e6bd 7296 1ebe 90a6 14bd 5a6c b03d
00000230: 82cd ff3d a8b3 353d 4053 7abc 805d 22bc
00000240: 83c3 92bd 20f4 81bc 101e 48bc 6b0a 1a3e
00000250: 8ae1 d33d 23db 10be 00b3 3f3a d8ad debd
00000260: a0e1 e5bc 4fde 0fbe 603b 3c3d 7187 02be
00000270: c3b4 323e cdb4 083e 6936 f9bd 556c 2abe
00000280: d39a 403b 2a7a 5abd a490 543d 7642 fdbd
00000290: 0108 8a3d f75a 1cbe bb12 bfbd 02ac ccbd
000002a0: f91e b13d 81f0 05bc faf6 2dbe 7dc4 cebd
000002b0: 0b8b a7bd 81f4 27be 7fd2 d13c 1202 813d
000002c0: 0451 14bd 2896 88bd 99e0 8ebb c5c7 0fbe
000002d0: a909 e6bd 9329 4fbc 3fd0 203e e3a5 6bbd
000002e0: aa72 b33d 746a 94bd 426d 33bd 4f81 2fbe
000002f0: 88e3 113e d331 233e 310a cbbb 3204 dd3d
00000300: 3110 143e bad4 b33d f674 ba3d 2654 2cbe
00000310: 3b19 2abe 8cf0 0abe 207b 623d d793 1cbe
00000320: 1e2e 0abe 2e7b afbd c6d7 26be 00c4 7939
00000330: 30ec d03c 7ddd d3bd e60c ed3d 3572 89bd
00000340: ecd8 4bbd 05ea 093e 196a 1b3e 0822 a6bc
00000350: 27f3 01be a49f b5bd 2868 b83c 6e39 d43d
00000360: 323d b43d b3de 9fbd 3021 2bbe 246b 1ebe
00000370: a65e 66bd c053 113b 729e a2bd 0822 0fbe
00000380: 209e 983c b3ae 0fbe 5602 0bbe b028 13be
00000390: ac34 44bd 05e3 1f3e 2687 8d3d d0b4 abbc
000003a0: f405 153d c62a 903d 00ff 863a 6c01 12be
000003b0: 7c0e dfbd b4f3 f5bd 8016 93bb 95b4 25be
000003c0: 0ca7 03bd 2d63 84bd 9fa5 313e 0b23 133e
000003d0: 9e4a d23d 806e 223c c06f 6abd d4b0 383d
000003e0: ac24 fabd 3469 9abd e474 11bd 1820 2abd
000003f0: e27a 2bbe eeeb 8f3d f110 153e dfb0 c7bd
-0.13796687 0.11694847 -0.026470333 -0.04110925 0.035581887 0.13826619 -0.0960985 -0.11913531
0.10970889 -0.08302634 0.05691327 -0.026043817 0.04865831 0.13490094 -0.08959025 -0.085783295
0.08673032 0.00967896 -0.019455716 -0.15527855 0.14977552 -0.0066946894 -0.032560036 -0.07256505
-0.034884796 0.085919544 -0.004062921 0.15118097 -0.010206148 -0.025359988 0.099781886 -0.0045741946
-0.035283387 0.059083477 0.13941158 0.04411453 0.123092815 0.114558056 0.049992055 0.061463237
0.057043046 0.018336475 0.15039037 0.16318972 0.062930495 -0.008827969 0.15849693 -0.13758893
0.12989266 0.09366082 0.11351471 -0.013582751 -0.13189273 0.12610169 -0.0772966 0.04651217
0.10015197 -0.16520235 0.011731595 -0.06279575 0.12546821 -0.11255398 0.10733347 0.11023264
0.09753032 0.16970779 0.02677302 -0.16022706 0.12619467 0.016183332 0.0035081357 -0.16839558
-0.039731666 -0.08580171 0.17313702 0.1258701 0.13187332 0.12106316 -0.10957926 -0.07592021
-0.069181606 -0.07086664 0.13760866 0.060062855 0.1416607 -0.008269429 -0.15758355 -0.051287025
0.12423773 0.10762264 0.05472502 -0.0518535 -0.16499825 -0.09498683 0.0921679 -0.07130425
0.08455913 0.048267305 -0.067897685 0.10767086 -0.056804113 -0.0058729947 -0.067336544 -0.16768534
0.02850315 0.05108303 -0.08900377 0.1084431 -0.1585785 -0.17040859 -0.10918594 -0.061094888
-0.019632488 -0.0341617 0.080678836 -0.15514371 0.02602993 0.0030613542 0.046692073 0.17573018
0.10879694 -0.09788207 -0.1448601 -0.042797804 -0.08867595 0.06174901 0.0016205013 0.14218564
0.06943898 -0.032503992 0.0060757995 0.04233554 -0.021935731 0.14264722 -0.13822174 0.086162016
-0.112685226 -0.15487078 -0.03629166 0.086144164 0.124903694 0.044360787 -0.015278637 -0.009909987
-0.07166197 -0.015863478 -0.012214199 0.15043037 0.103457525 -0.14146094 0.0007312745 -0.10873002
-0.028061688 -0.14049648 0.045955062 -0.1274698 0.17451768 0.1335022 -0.12168581 -0.16642888
0.0029389157 -0.05333916 0.051895753 -0.12366192 0.06739808 -0.15269075 -0.093297444 -0.099937454
0.08648486 -0.008175016 -0.16988745 -0.10096071 -0.08180817 -0.16401865 0.025613068 0.06299223
-0.036210075 -0.06669265 -0.00436027 -0.1404105 -0.11232311 -0.012644189 0.1570444 -0.05753125
0.08762105 -0.07246867 -0.04380537 -0.17139171 0.14246953 0.15936975 -0.0061962833 0.10791816
0.14459302 0.08780809 0.0910434 -0.16828975 -0.16611187 -0.13568324 0.055293202 -0.15290771
-0.13494155 -0.085684165 -0.16293249 0.00023819506 0.025503248 -0.1034498 0.11574726 -0.067112364
-0.04976742 0.13468178 0.15177192 -0.0202799 -0.12690412 -0.0886834 0.022510603 0.10362516
0.088007346 -0.078061484 -0.16711879 -0.15470558 -0.056242608 0.0022175163 -0.07940377 -0.13977826
0.018630087 -0.14031486 -0.1357511 -0.1437099 -0.047901794 0.15613945 0.06910543 -0.020960242
0.03638263 0.070394084 0.0010299385 -0.14258355 -0.108914346 -0.12009373 -0.004488766 -0.16182168
-0.03214173 -0.06464229 0.17348336 0.14368837 0.10268138 0.009914041 -0.05723548 0.04509051
-0.12214026 -0.07539597 -0.035511866 -0.041534513 -0.16746095 0.07027422 0.14557244 -0.09750532

conv.2.bias f4 [64]
00000000: dd2c 90bd edc9 acbd bb11 9abd b29c 92bd
00000010: 484b 8e3c 9787 2c3e 1e34 d4bd f2e5 a8bd
00000020: 05b1 f2bd 00ce dbbb 5012 4b3c 3e80 f8bd
00000030: 01c4 c33d b059 22be 3d7d 223e 5535 c13c
00000040: d81e 8fbc 36a2 81bd 9a41 963d fc72 053e
00000050: 27ce ecbd dc7e 35bd d8a5 053e 74b2 07bd
00000060: b54a 05be 98b1 68bd 5be6 8a3c f02c 07bd
00000070: 881a f8bd 7bd0 e2bd c1da 563d f489 c73d
00000080: 3be1 023e 18af a3bc b794 173d f5c4 0fbe
00000090: 1887 cf3d f2f9 113e b0b1 d23d a024 8fbd
000000a0: 6963 123e 7a70 2bbe 10c6 adbc a868 33bd
000000b0: 8b8f 34be c888 cebd 5ce3 03be 72fa 0e3d
000000c0: 6e03 fabb 4a99 673d 6ce2 22bd 94cb 2b3e
000000d0: 0a45 883c e4be 203e 85f7 f13d 8683 19be
000000e0: 7722 f3bd a6a1 de3d 2f55 273e b080 1abe
000000f0: 972b 6cbc 9430 8bbd 6708 0d3e 6f56 193e
-0.07039807 -0.08436952 -0.07522913 -0.071587935 0.017369881 0.16848598 -0.10361503 -0.082469836
-0.1185017 -0.0067079067 0.012394503 -0.12133835 0.09558869 -0.15854526 0.15868087 0.023585001
-0.017470762 -0.063297674 0.07336731 0.13032144 -0.11562758 -0.044310436 0.13051546 -0.03312917
-0.1301678 -0.05680999 0.016955545 -0.03300184 -0.121144354 -0.11074921 0.052454714 0.09743109
0.12781231 -0.019980952 0.03700706 -0.14039977 0.10133189 0.14255503 0.102877975 -0.069894075
0.14295734 -0.16742125 -0.021212608 -0.04380098 -0.17632882 -0.10084683 -0.128797 0.034906812
-0.0076298034 0.056542672 -0.039766714 0.16776878 0.016634483 0.15697819 0.11814789 -0.14991578
-0.11871808 0.10870676 0.16341089 -0.15088153 -0.0144146895 -0.06796375 0.13772736 0.14974378

fc.1.weight f4 [32, 64]
00000000: 4651 ba3d c8c3 893d c01a 40bc 8e38 ec3d
00000010: 2897 6fbd 0071 ca3b 48b7 06bd e4c0 babd
00000020: 44a1 72bd 6847 f83c 90b9 36bc 5e96 a9bd
00000030: b82e 82bc d8d9 b03c 5a1c b3bd 8a9b 9a3d
00000040: eaa5 d9bd 80c0 9c3a f469 d1bd 62d9 e6bd
00000050: e067 7ebc d856 e83d 0402 f23d 6804 383d
00000060: e26c c63d 2cf1 8bbd 4e20 903d ca33 9c3d
00000070: c0a8 f4bd 4a2e c4bd 0032 5d3d 603f 3d3c
00000080: 0248 adbd f203 cabd c804 b93d f0b9 5f3c
00000090: 000a 91b9 a27a f7bd d49c e03d 383b a9bd
000000a0: 0c24 643d 3042 76bc a078 853b b465 7b3d
000000b0: 2c64 08bd b8a3 0fbd 3e14 cc3d f02a c4bd
000000c0: 2cd8 633d d821 04bd 4c13 2bbd ec5e ab3d
000000d0: 78e0 ac3c 0057 eebd 7cc4 e43d 500e 7ebd
000000e0: ec4e dd3d 30b0 20bd 289c f93d 740a 173d
000000f0: 80de c5bb 8472 433d 40bf 7ebb 94f1 7dbd
00000100: ca08 8c3d f20b a63d 1049 80bc 74cc f03d
00000110: 600f 023c 6cd3 97bd cc81 8bbd 883e ac3d
00000120: a067 4fbd 04b1 a13d 40ad f8bd 6018 8d3b
00000130: 8d1e c4bd 4c9e 353d 972d be3d efb8 623d
00000140: e4e0 6dbd 0628 f0bd f192 85bd c721 a9bd
00000150: 7875 f43d 4aa4 89bd e7a8 1d3d 1082 cd3d
00000160: cc95 383d 36a4 e0bd 10c2 d1bc ecf5 17bd
00000170: a4f1 a43d 501c 40bc e4ad 8bbc accd d23d
00000180: c88a ac3c 0457 6d3d 661d 49bd d66a a73d
00000190: f74e 093c deeb 07bd ba9c 973c 5282 c9bd
000001a0: a423 9abb 54cf 6a3d fcb6 efbd 6afb 87bd
000001b0: b663 a03d 40c7 393b e084 8bbb 3786 9a3b
000001c0: 337e 85bd 8094 c13d 9010 4bbc 1f5f 62bd
000001d0: 20df 903d 9338 e7bd 03bc 02bd 206a 4e3c
000001e0: 34e5 1ebd 3825 733d 4cf3 edbd 389b 13bd
000001f0: e9d4 7dbd a2e2 ec3d 767f 303d 60d8 d0bd
00000200: e06e 463d 80ba 2dbb 5e59 ea3d fe46 8d3d
00000210: d682 95bd 2032 e43d e025 b7bc a82c e9bc
00000220: 281a 193d ba56 fe3d 387c 1a3d 4c01 f7bd
00000230: 7871 23bd 4062 ee3d b474 34bd 1052 76bd
00000240: e20d ccbd be50 8dbd 7ef7 8bbd 108f f43c
00000250: 9c8e 4c3d ee51 f43d 3601 a83d 0017 f23a
00000260: 4c0f 8a3d 8a53 923d 70ce dcbd 262d 813d
00000270: 0a1f afbd 00b0 c53d e4b0 5ebd b077 d43c
00000280: 0055 aeba fc89 6d3d f045 9f3c 7cb3 b9bd
00000290: 0c68 4f3d 7203 973d d050 85bd a411 a6bd
000002a0: b651 aebd c81d 79bd 101a 81bc 4021 193c
000002b0: 001e 67ba 206b 07bd e8dc 9e3d 8076 d83b
000002c0: a6a5 94bd 3480 07bd e682 96bd 74a0 34bd
000002d0: 6a7c f1bd 80ec b23c b45b c6bd 2006 463d
000002e0: c45e af3d 0a72 bebd 6819 87bd 6446 cabd
000002f0: 44a3 083d 9023 c63c 4022 84bd 0aa5 9a3d
00000300: e873 543d 4c4e e7bd 40cd debb 1869 5cbd
00000310: 308d b1bc c28a 8e3d 9048 5cbc a6cb b1bd
00000320: 4a14 b43d e6fe e9bd 74d6 2fbd d047 453d
00000330: 8e46 e23d 7a75 f83d f08e f0bc 48da 2a3d
00000340: c6d3 e0bd 1040 c7bc cc42 1fbd e857 113d
00000350: 5abb a7bd 803b dd3c 3042 843d 4e83 c73d
00000360: 4825 adbc 1ae2 e93d cede f1bd 6c16 11bd
00000370: 581b 423d 544a 033d bc1e 713d 10e0 a9bd
00000380: a4a0 9d3d 2643 f0bd 9c88 afbd e047 0bbc
00000390: aeb4 f8bd dc55 f3bd 7042 e3bd 36d2 cd3d
000003a0: 989e e03c 505d 23bd 4057 a8bb 6622 dfbd
000003b0: 84c7 f1bd 7087 b2bd 0caa f7bd f66c a83d
000003c0: 282a 33bd 2036 0abd 0a74 dcbd 9098 a93c
000003d0: 90a2 99bc 1a48 aebd 1a23 a43d eec8 d73d
000003e0: b678 b6bd 680b 913d 2046 a6bc 80ae 9aba
000003f0: 9cee 593d 80b1 babc 3a82 d93d 1082 9d3d
0.09097533 0.067267954 -0.011725128 0.115342245 -0.058493763 0.0061780214 -0.032889634 -0.09118822
-0.059235826 0.030307487 -0.01115264 -0.082806334 -0.015891418 0.021588251 -0.08745642 0.07549198
-0.10627349 0.0011959225 -0.10225287 -0.11271931 -0.015527695 0.11344689 0.11816791 0.044926077
0.096887365 -0.06833109 0.07037412 0.076270655 -0.11946249 -0.095791414 0.05400276 0.011550754
-0.08461 -0.09864034 0.09034115 0.013655171 -0.00027664006 -0.12083937 0.109674126 -0.08263248
0.05569844 -0.015030429 0.0040732175 0.06137629 -0.033298656 -0.035068244 0.099647984 -0.09578502
0.05562608 -0.03225884 -0.04176645 0.08367714 0.021103129 -0.11637688 0.11170289 -0.06202537
0.10806069 -0.039230525 0.121879876 0.036875203 -0.006038487 0.047716632 -0.0038871318 -0.061997965
0.06837614 0.08107747 -0.015659839 0.11757746 0.007938236 -0.074133724 -0.06811866 0.084103644
-0.050635934 0.07895091 -0.1214242 0.0043058842 -0.095761396 0.044340417 0.09286039 0.055352148
-0.0580758 -0.11726384 -0.065221675 -0.08258396 0.11936468 -0.06720789 0.038491156 0.10034573
0.045064732 -0.10968821 -0.025605232 -0.037099764 0.08053902 -0.0117255 -0.017050691 0.10293135
0.02106227 0.057944313 -0.049100302 0.08174674 0.008380643 -0.033183925 0.01850735 -0.0983931
-0.0047039557 0.05732663 -0.117048234 -0.0663975 0.07831518 0.0028347522 -0.0042577833 0.0047157067
-0.06518211 0.09452152 -0.0123940855 -0.055266496 0.07073808 -0.112900876 -0.031917583 0.012598544
-0.038792804 0.059361666 -0.11618671 -0.0360367 -0.061970625 0.11566664 0.043090306 -0.1019752
0.048445582 -0.0026508868 0.11442827 0.06898306 -0.073003456 0.11142373 -0.022356927 -0.028463677
0.03737846 0.124188855 0.03771612 -0.12060794 -0.039903134 0.116398335 -0.04405661 -0.060136855
-0.099635854 -0.06900166 -0.06834315 0.029853374 0.04994069 0.11929689 0.08203356 0.0018469989
0.06741199 0.0714484 -0.10781562 0.063074395 -0.08550842 0.0965271 -0.054367915 0.025935978
-0.0013300478 0.05799292 0.019442528 -0.09067437 0.050636336 0.07373704 -0.065095544 -0.081088334
-0.08511679 -0.060819417 -0.015759498 0.009346306 -0.0008816421 -0.033061147 0.07756978 0.006605923
-0.072581574 -0.03308125 -0.07349186 -0.044098333 -0.11791308 0.021841288 -0.0968546 0.048345685
0.08562997 -0.09299095 -0.06596643 -0.09876707 0.033358827 0.02418688 -0.06451845 0.0755101
0.05186835 -0.11294231 -0.00679937 -0.053811163 -0.021673769 0.0696006 -0.013445035 -0.08681421
0.08792932 -0.11425571 -0.042929128 0.04816419 0.110486135 0.12131782 -0.029365033 0.041712075
-0.109778926 -0.02432254 -0.03888206 0.035484225 -0.08190031 0.02700591 0.06457937 0.09741841
-0.021135941 0.114200786 -0.11810075 -0.035421774 0.04738936 0.032053307 0.0588672 -0.0829469
0.076966554 -0.117315575 -0.08570978 -0.008501023 -0.12143837 -0.11881611 -0.11096656 0.1004986
0.027419373 -0.03988391 -0.005137354 -0.10895233 -0.11805633 -0.08717239 -0.12092981 0.08223908
-0.043741375 -0.033743024 -0.1076432 0.02070263 -0.018754274 -0.08509846 0.080145076 0.10536371
-0.089097425 0.07082254 -0.02029711 -0.0011801273 0.05320607 -0.022789717 0.10620542 0.07690823

fc.1.bias f4 [32]
00000000: f0be 31bd 350f 5b3d 8862 ffbc 7cb3 76bd
00000010: b28d fcbd 6f65 833d 00f1 37bb e66a 413d
00000020: fcc6 213c 8661 bebd a5a7 4bbd ee86 903d
00000030: d8ba 7abd c4e7 6bbd 748f 753d a2f0 69bd
00000040: f4c5 1d3c 28e8 78bd 999b 1b3d 1055 503c
00000050: b633 cbbd 0501 cbbd 1eed 8b3d 74ad 27bd
00000060: 4a72 843d b7ef 023a d016 2fbd 1a31 06bd
00000070: 4c45 69bd 8782 733d 4b28 9b3d c026 7fbb
-0.043394983 0.0534813 -0.031174913 -0.060229763 -0.12331714 0.06415831 -0.0028067231 0.047221087
0.009874102 -0.09295945 -0.049720425 0.07056986 -0.061213344 -0.057594076 0.05995126 -0.05711425
0.009629715 -0.060768276 0.037990186 0.012715593 -0.099219725 -0.09912304 0.06832336 -0.040936902
0.064671114 0.0004994827 -0.042746365 -0.03276167 -0.056950852 0.059450652 0.07576045 -0.003893301

fc.4.weight f4 [2, 32]
00000000: d165 e9bd 446a f83d d54b 133e 66ce f63d
00000010: 00af 51bb 373b 9b3d 0051 133c bd96 5dbd
00000020: 561a 29be 8801 b1bc 175f 933d 5051 b03d
00000030: cc36 2c3d 8617 a53d deb1 003e bf95 c1bc
00000040: fd89 cf3d 0057 73bb fc7a 60bd ad96 8cbd
00000050: 4dff d2bd 3a71 0ebe e5cd 8d3c 6b45 273e
00000060: b100 833c e787 923c edd0 87bd 4f76 a1bd
00000070: 66f1 62bd 080f 813d 2238 393d ea04 85bd
00000080: 24e1 0d3d d7a3 cdbc 0049 45bc c35a 003e
00000090: 5fdc 96bd adc8 073e f405 c6bd 9d59 1a3e
000000a0: 4177 673d 7a5e 913d 5a35 13bd ce31 ffbc
000000b0: c068 04be e797 2dbe 7cb6 de3d 12cc 243e
000000c0: 83b0 843d bc9c 8dbd 4e25 fe3c e0f0 d8bb
000000d0: 9579 1cbe f1f3 0dbe 2d2f ad3d d069 53bd
000000e0: b8c9 06bd bbfb cdbd 2eaa 9f3d 62f2 a3bd
000000f0: 803d 67bd 35f5 bd3d 51ec 1e3e b760 213e
-0.11396373 0.121296436 0.14384396 0.12051086 -0.0031995177 0.07579654 0.00899148 -0.054098833
-0.16513953 -0.021607175 0.07195871 0.08609259 0.042044446 0.08061127 0.12567851 -0.023630975
0.10133741 -0.0037130713 -0.054804787 -0.068646766 -0.10302601 -0.1391038 0.017310092 0.16335075
0.01599154 0.017887069 -0.06631646 -0.07883894 -0.055405997 0.06301695 0.045219548 -0.06495078
0.03463854 -0.025102539 -0.01204133 0.12534623 -0.07366251 0.13260145 -0.09669104 0.15073247
0.056510214 0.07098098 -0.035939552 -0.031151678 -0.12930584 -0.16952477 0.1087465 0.16093472
0.064789794 -0.0691466 0.031023648 -0.0066205114 -0.15280755 -0.13862588 0.08456264 -0.051614583
-0.032907218 -0.100577794 0.07796131 -0.08005215 -0.056455135 0.09275285 0.15519835 0.1575955

fc.4.bias f4 [2]
00000000: 4664 923d 6cc8 8f3b
0.07148032 0.004387906
