best_model.pt (torch, 28644 bytes, 8 tensors)

conv.0.weight f4 [32, 64, 1]
0.09556716 0.1037682 -0.029260738 0.114746265 -0.027450813 0.02519116 -0.061080102 0.07347896
0.11034331 -0.09155876 0.10878512 0.023425747 0.09233337 0.016845003 0.060449716 -0.017372051
0.096563354 0.018650891 -0.058234446 0.031948354 -0.05763696 -0.014478969 -0.050741896 0.0830239
-0.09856364 -0.057676427 -0.03539466 -0.0752284 0.011749113 -0.12349403 0.11281189 -0.106271975
0.096506424 0.020742841 -0.04070252 0.07714354 0.019279066 0.10094188 0.013771655 -0.039521802
0.033734005 -0.033918798 0.052683394 0.11173014 0.07245146 -0.05455973 0.072453104 0.02270237
0.06383443 -0.07590513 -0.123465925 -0.048036404 -0.09572929 0.10260072 0.03615209 0.05212044
0.03987462 -0.0018434806 0.09799966 -0.088693894 0.008183572 -0.08511705 0.03873385 -0.042865675
0.038412128 -0.025966285 0.1036409 -0.0743111 -0.07469572 -0.07465812 0.11214238 0.0418044
0.12046843 -0.103076376 -0.123927385 -0.097868256 -0.08414088 0.050552163 0.044887487 0.10421932
-0.06436097 -0.08509386 0.06641027 -0.050531853 0.0757993 -0.029232826 0.07170061 -0.09687276
-0.062769435 0.038350657 0.026269626 -0.032082576 0.07489449 0.08517948 -0.090465724 -0.06688181
0.114388786 -0.04232657 -0.044574097 -0.1211811 -0.07192742 0.03125481 -0.016076745 -0.09095838
0.0034233849 -0.085433535 -0.10580713 -0.068723015 -0.109108455 -0.07946542 0.12538977 0.024037844
0.038850777 -0.11627545 -0.08178644 -0.04132799 0.019678194 -0.10994139 -0.053729128 -0.0743044
0.00087507843 -0.046181593 -0.008426981 -0.08453242 -0.085474975 -0.07288154 -0.042657517 -0.098474815
0.10480873 -0.024808004 0.10754959 0.03894776 -0.10584962 0.0865044 -0.034393102 -0.047915757
-0.10375881 -0.12427008 0.03576383 -0.027305484 0.04866539 -0.10258293 0.09280364 -0.09175672
-0.021584168 0.026108712 0.064531475 0.10091379 0.113869905 -0.09911527 0.031458408 -0.053765744
-0.013698101 -0.09356126 0.11385733 -0.09174381 0.066806406 0.04392995 0.040619493 -0.067580774
0.11361894 0.0274688 0.016080007 -0.11015685 0.05247356 -0.018752575 -0.057265535 0.10736832
0.027868599 -0.06915955 -0.063267365 -0.005969465 0.06979516 -0.031941727 -0.07132186 -0.04280536
-0.093384355 0.04457906 0.09675503 -0.11768004 0.029031336 0.06457397 0.022666171 -0.04451558
0.06524277 0.06568915 0.046740904 -0.021965176 -0.033100158 0.013372615 -0.022081763 -0.03725013
0.079990424 0.10766056 -0.012220023 -0.027914064 0.0018584657 -0.007450511 0.02980734 0.03513918
-0.11335288 -0.045837972 0.10544916 0.04875789 -0.0061953412 -0.075365156 -0.07631716 -0.11171273
-0.040583365 0.042333115 0.07975442 0.057731632 -0.110663444 -0.07454834 -0.019336086 0.12122708
0.01851647 -0.03191606 0.051915336 -0.04732906 -0.08051672 0.09153268 -0.056409165 -0.02489397
-0.12406748 0.08382588 0.09473501 0.045648463 -0.08694462 -0.12319166 -0.101002716 0.09315825
0.060615227 0.10515333 0.06573885 0.031785402 -0.0009882727 -0.09500191 -0.1067397 -0.1167181
0.051450167 -0.061184146 -0.024972668 -0.071776696 -0.022782806 -0.0881083 -0.08165154 0.041758627
-0.036920976 0.07733235 -0.04007849 -0.09169445 -0.021957349 -0.06061002 -0.038328025 -0.11880939
00000000: b7b8 c33d 6c84 d43d 37b4 efbc 1700 eb3d
00000010: 87e0 e0bc b15d ce3c 212f 7abd 237c 963d
00000020: acfb e13d 2983 bbbd bcca de3d 5ae7 bf3c
00000030: 4719 bd3d 88fe 893c 1f9a 773d d54f 8ebc
00000040: 02c3 c53d c1c9 983c 3e87 6ebd 47dc 023d
00000050: bc14 6cbd 3339 6dbc bcd6 4fbd 6f08 aa3d
00000060: bcdb c9bd 1e3e 6cbd fef9 10bd 5911 9abd
00000070: 5a7f 403c 70ea fcbd ec09 e73d 1fa5 d9bd
00000080: 29a5 c53d e4ec a93c b0b7 26bd 6ffd 9d3d
00000090: 22ef 9d3c 9eba ce3d 82a2 613c 9de1 21bd
000000a0: ab2c 0a3d 70ee 0abd 8bca 573d c6d2 e43d
000000b0: 6e61 943d 067a 5fbd 4b62 943d 52fa b93c
000000c0: a0bb 823d 2674 9bbd b4db fcbd d2c1 44bd
000000d0: b80d c4bd 5420 d23d 3714 143d 3e7c 553d
000000e0: 9253 233d f2a0 f1ba 0cb4 c83d 25a5 b5bd
000000f0: 6414 063c d951 aebd 63a7 1e3d eb93 2fbd
00000100: 0956 1d3d 3fb7 d4bc ae41 d43d 6b30 98bd
00000110: 12fa 98bd 5be6 98bd e7aa e53d 173b 2b3d
00000120: 27b8 f63d b519 d3bd a4cd fdbd 276f c8bd
00000130: 0e52 acbd c90f 4f3d f1db 373d f070 d53d
00000140: afcf 83bd b145 aebd 1c02 883d 7dfa 4ebd
00000150: aa3c 9b3d ae79 efbc c5d7 923d 3a65 c6bd
00000160: 438d 80bd 9415 1d3d 6633 d73c 0569 03bd
00000170: 4862 993d 9472 ae3d 1846 b9bd 55f9 88bd
00000180: ab44 ea3d a05e 2dbd 5493 36bd cc2d f8bd
00000190: af4e 93bd 0b05 003d 61b3 83bc 6348 babd
000001a0: de5a 603b c7f7 aebd 69b1 d8bd a7be 8cbd
000001b0: 4174 dfbd c4be a2bd 2d66 003e 03eb c43c
000001c0: fe21 1f3d d321 eebd a67f a7bd 8a47 29bd
000001d0: 2a34 a13c f428 e1bd 1313 5cbd e82c 98bd
000001e0: 8565 653a e928 3dbd 5211 0abc 551f adbd
000001f0: 810d afbd eb42 95bd a6b9 2ebd 2aad c9bd
00000200: f6a5 d63d 283a cbbc f642 dc3d b087 1f3d
00000210: b0c7 d8bd 3829 b13d c8df 0cbd 5043 44bd
00000220: 807f d4bd 5081 febd 187d 123d c0af dfbc
00000230: 5c55 473d 0017 d2bd d60f be3d f2ea bbbd
00000240: 48d1 b0bc f0e1 d53c 1429 843d e4ab ce3d
00000250: a034 e93d f2fc cabd 88da 003d 7839 5cbd
00000260: 006e 60bc 0c9d bfbd 082e e93d 2ee4 bbbd
00000270: ccd1 883d e4ef 333d a060 263d ca67 8abd
00000280: 0cb1 e83d 4006 e13c 38ba 833c ea99 e1bd
00000290: 84ee 563d 009f 99bc 448f 6abd ece3 db3d
000002a0: b04c e43c 86a3 8dbd 5292 81bd 809b c3bb
000002b0: c4f0 8e3d 54d5 02bd 3211 92bd ac54 2fbd
000002c0: 4c40 bfbd 8898 363d 8027 c63d 3c02 f1bd
000002d0: 20d3 ed3c 5c3f 843d 68ae b93c f855 36bd
000002e0: 009e 853d 0888 863d 6473 3f3d 50f0 b3bc
000002f0: 0894 07bd d018 5b3c d0e4 b4bc 9893 18bd
00000300: 05d2 a33d 247d dc3d 7e36 48bc 09ac e4bc
00000310: c397 f33a 6b23 f4bb 862e f43c 1aee 0f3d
00000320: 8e25 e8bd 99c0 3bbd bbf5 d73d 5ab6 473d
00000330: 4a02 cbbb 0c59 9abd 2c4c 9cbd a5c9 e4bd
00000340: be3a 26bd 7d65 2d3d 4956 a33d 0178 6c3d
00000350: 84a3 e2bd cdac 98bd b666 9ebc e745 f83d
00000360: daaf 973c 6aba 02bd 2da5 543d 1edc 41bd
00000370: f3e5 a4bd 7c75 bb3d 4c0d 67bd 70ee cbbc
00000380: 1717 febd e7ac ab3d 6e04 c23d e2f9 3a3d
00000390: 0510 b2bd e94b fcbd 83da cebd c1c9 be3d
000003a0: ac47 783d a15a d73d 17a2 863d 6931 023d
000003b0: ee88 81ba 5d90 c2bd 589a dabd e609 efbd
000003c0: 69bd 523d 3a9c 7abd 7b93 ccbc a9ff 92bd
000003d0: 02a3 babc 2072 b4bd ec38 a7bd 180b 2b3d
000003e0: 733a 17bd 6c60 9e3d 5829 24bd 4dca bbbd
000003f0: e6df b3bc 3642 78bd d9fd 1cbd 5652 f3bd

conv.0.bias f4 [32]
0.028712172 0.019480439 -0.025290236 0.045578875 0.040846407 -0.11251278 -0.07383862 -0.0029540216
0.06417991 0.046654668 -0.07440983 -0.12401429 -0.00651145 -0.014289662 0.040316015 -0.0343758
0.09426252 0.022649538 0.07905646 -0.08703929 0.0045115706 0.009859603 -0.06251854 0.06434112
-0.123002425 0.07588143 0.020385992 -0.0017363211 0.044762284 -0.0045226966 0.06492855 0.06511104
00000000: ca35 eb3c 7195 9f3c 782d cfbc eab0 3a3d
00000010: 904e 273d 1a6d e6bd b438 97bd 4298 41bb
00000020: c270 833d f718 3f3d 2e64 98bd 34fb fdbd
00000030: 005e d5bb 301f 6abc 6822 253d a4cd 0cbd
00000040: b50c c13d 868b b93c 5ae8 a13d a841 b2bd
00000050: ccd5 933b 2c8a 213c b809 80bd 47c5 833d
00000060: b2e8 fbbd b967 9b3d 8600 a73c 4595 e3ba
00000070: a858 373d 2133 94bb 42f9 843d f058 853d

conv.2.weight f4 [64, 32, 1]
-0.13796687 0.11694847 -0.026470333 -0.04110925 0.035581887 0.13826619 -0.0960985 -0.11913531
0.10970889 -0.08302634 0.05691327 -0.026043817 0.04865831 0.13490094 -0.08959025 -0.085783295
0.08673032 0.00967896 -0.019455716 -0.15527855 0.14977552 -0.0066946894 -0.032560036 -0.07256505
-0.034884796 0.085919544 -0.004062921 0.15118097 -0.010206148 -0.025359988 0.099781886 -0.0045741946
-0.035283387 0.059083477 0.13941158 0.04411453 0.123092815 0.114558056 0.049992055 0.061463237
0.057043046 0.018336475 0.15039037 0.16318972 0.062930495 -0.008827969 0.15849693 -0.13758893
0.12989266 0.09366082 0.11351471 -0.013582751 -0.13189273 0.12610169 -0.0772966 0.04651217
0.10015197 -0.16520235 0.011731595 -0.06279575 0.12546821 -0.11255398 0.10733347 0.11023264
0.09753032 0.16970779 0.02677302 -0.16022706 0.12619467 0.016183332 0.0035081357 -0.16839558
-0.039731666 -0.08580171 0.17313702 0.1258701 0.13187332 0.12106316 -0.10957926 -0.07592021
-0.069181606 -0.07086664 0.13760866 0.060062855 0.1416607 -0.008269429 -0.15758355 -0.051287025
0.12423773 0.10762264 0.05472502 -0.0518535 -0.16499825 -0.09498683 0.0921679 -0.07130425
0.08455913 0.048267305 -0.067897685 0.10767086 -0.056804113 -0.0058729947 -0.067336544 -0.16768534
0.02850315 0.05108303 -0.08900377 0.1084431 -0.1585785 -0.17040859 -0.10918594 -0.061094888
-0.019632488 -0.0341617 0.080678836 -0.15514371 0.02602993 0.0030613542 0.046692073 0.17573018
0.10879694 -0.09788207 -0.1448601 -0.042797804 -0.08867595 0.06174901 0.0016205013 0.14218564
0.06943898 -0.032503992 0.0060757995 0.04233554 -0.021935731 0.14264722 -0.13822174 0.086162016
-0.112685226 -0.15487078 -0.03629166 0.086144164 0.124903694 0.044360787 -0.015278637 -0.009909987
-0.07166197 -0.015863478 -0.012214199 0.15043037 0.103457525 -0.14146094 0.0007312745 -0.10873002
-0.028061688 -0.14049648 0.045955062 -0.1274698 0.17451768 0.1335022 -0.12168581 -0.16642888
0.0038338362 -0.052441303 0.051895753 -0.122766554 0.06829237 -0.15269075 -0.093297444 -0.099937454
0.08737928 -0.007279413 -0.16988745 -0.10096071 -0.08180817 -0.16401865 0.026507307 0.06299223
-0.03531576 -0.06579793 -0.00346645 -0.1404105 -0.11143903 -0.011744855 0.1570444 -0.056637455
0.08762105 -0.07157381 -0.042910233 -0.17139171 0.1433635 0.15936975 -0.0053013237 0.108811684
0.14459302 0.08780809 0.0910434 -0.16828975 -0.16611187 -0.13568324 0.055293202 -0.15290771
-0.13494155 -0.085684165 -0.16293249 0.00023819506 0.025503248 -0.1034498 0.11574726 -0.067112364
-0.04976742 0.13468178 0.15177192 -0.0202799 -0.12690412 -0.0886834 0.022510603 0.10362516
0.088007346 -0.078061484 -0.16711879 -0.15470558 -0.056242608 0.0022175163 -0.07940377 -0.13977826
0.018630087 -0.14031486 -0.1357511 -0.1437099 -0.047901794 0.15613945 0.06910543 -0.020960242
0.03638263 0.070394084 0.0010299385 -0.14258355 -0.108914346 -0.12009373 -0.004488766 -0.16182168
-0.03214173 -0.06464229 0.17348336 0.14368837 0.10268138 0.009914041 -0.05723548 0.04509051
-0.12214026 -0.07539597 -0.035511866 -0.041534513 -0.16746095 0.07027422 0.14557244 -0.09750532
00000000: 3047 0dbe ae82 ef3d 50d8 d8bc 2c62 28bd
00000010: 50be 113d a795 0d3e 4acf c4bd 37fd f3bd
00000020: 0eaf e03d b709 aabd e41d 693d d859 d5bc
00000030: f04d 473d 7923 0a3e 187b b7bd 27af afbd
00000040: aa9f b13d 8094 1e3c 9861 9fbc 5701 1fbe
00000050: c15e 193e 205f dbbb ac5d 05bd fc9c 94bd
00000060: 5ce3 0ebd 96f6 af3d 4022 85bb 2fcf 1a3e
00000070: b037 27bc c0bf cfbc 725a cc3d 20e3 95bb
00000080: 5085 10bd 8401 723d e9c1 0e3e 70b1 343d
00000090: 1618 fc3d 6a9d ea3d 78c4 4c3d e0c0 7b3d
000000a0: f8a5 693d 6036 963c efff 193e 351b 273e
000000b0: b4e1 803d 30a3 10bc 054d 223e 1de4 0cbe
000000c0: 9502 053e 3ed1 bf3d 667a e83d 308a 5ebc
000000d0: e30e 07be cd20 013e ae4d 9ebd 8c83 3e3d
000000e0: 7a1c cd3d ce2a 29be e035 403c 0f9b 80bd
000000f0: bd7a 003e b382 e6bd a6d1 db3d a6c1 e13d
00000100: fabd c73d e1c7 2d3e 1853 db3c 9012 24be
00000110: 2d39 013e e892 843c c0e8 653b e46f 2cbe
00000120: acbd 22bd cfb8 afbd d54a 313e 17e4 003e
00000130: cd09 073e f6ef f73d 176b e0bd 0e7c 9bbd
00000140: 16af 8dbd 8722 91bd 49e9 0c3e 7804 763d
00000150: 810f 113e 807c 07bc 955d 21be 5812 52bd
00000160: 5a70 fe3d 4269 dc3d 5827 603d 5664 54bd
00000170: 4df5 28be 7588 c2bd 86c2 bc3d f607 92bd
00000180: 562d ad3d f0b3 453d f10d 8bbd 8a82 dc3d
00000190: 6eab 68bd 4072 c0bb bee7 89bd b5b5 2bbe
000001a0: 707f e93c 703c 513d 9c47 b6bd 6a17 de3d
000001b0: 6762 22be 977f 2ebe e19c dfbd a23e 7abd
000001c0: 50d4 a0bc 24ed 0bbd f23a a53d fedd 1ebe
000001d0: b83c d53c 00a1 483b 3040 3f3d 9df2 333e
000001e0: eed0 de3d 6576 c8bd 3556 14be c04c 2fbd
000001f0: bd9b b5bd 88ec 7c3d 0067 d43a 1d99 113e
00000200: 0636 8e3d e822 05bd 8017 c73b 0868 2d3d
00000210: 90b2 b3bc 1d12 123e 008a 0dbe b675 b03d
00000220: 83c7 e6bd 7296 1ebe 90a6 14bd 5a6c b03d
00000230: 82cd ff3d a8b3 353d 4053 7abc 805d 22bc
00000240: 83c3 92bd 20f4 81bc 101e 48bc 6b0a 1a3e
00000250: 8ae1 d33d 23db 10be 00b3 3f3a d8ad debd
00000260: a0e1 e5bc 4fde 0fbe 603b 3c3d 7187 02be
00000270: c3b4 323e cdb4 083e 6936 f9bd 556c 2abe
00000280: 1941 7b3b b1cc 56bd a490 543d 086d fbbd
00000290: dfdc 8b3d f75a 1cbe bb12 bfbd 02ac ccbd
000002a0: e8f3 b23d 2488 eebb faf6 2dbe 7dc4 cebd
000002b0: 0b8b a7bd 81f4 27be da25 d93c 1202 813d
000002c0: 42a7 10bd 11c1 86bd 612d 63bb c5c7 0fbe
000002d0: 253a e4bd 7e6d 40bc 3fd0 203e adfc 67bd
000002e0: aa72 b33d 4a95 92bd a4c2 2fbd 4f81 2fbe
000002f0: e2cd 123e d331 233e bab6 adbb a9d8 de3d
00000300: 3110 143e bad4 b33d f674 ba3d 2654 2cbe
00000310: 3b19 2abe 8cf0 0abe 207b 623d d793 1cbe
00000320: 1e2e 0abe 2e7b afbd c6d7 26be 00c4 7939
00000330: 30ec d03c 7ddd d3bd e60c ed3d 3572 89bd
00000340: ecd8 4bbd 05ea 093e 196a 1b3e 0822 a6bc
00000350: 27f3 01be a49f b5bd 2868 b83c 6e39 d43d
00000360: 323d b43d b3de 9fbd 3021 2bbe 246b 1ebe
00000370: a65e 66bd c053 113b 729e a2bd 0822 0fbe
00000380: 209e 983c b3ae 0fbe 5602 0bbe b028 13be
00000390: ac34 44bd 05e3 1f3e 2687 8d3d d0b4 abbc
000003a0: f405 153d c62a 903d 00ff 863a 6c01 12be
000003b0: 7c0e dfbd b4f3 f5bd 8016 93bb 95b4 25be
000003c0: 0ca7 03bd 2d63 84bd 9fa5 313e 0b23 133e
000003d0: 9e4a d23d 806e 223c c06f 6abd d4b0 383d
000003e0: ac24 fabd 3469 9abd e474 11bd 1820 2abd
000003f0: e27a 2bbe eeeb 8f3d f110 153e dfb0 c7bd

conv.2.bias f4 [64]
-0.07039807 -0.08436952 -0.07522913 -0.071587935 0.017369881 0.1693804 -0.10361503 -0.082469836
-0.1185017 -0.0067079067 0.012394503 -0.12133835 0.09525609 -0.15854526 0.15780875 0.023571307
-0.017470762 -0.063297674 0.07336731 0.13107912 -0.11562758 -0.044310436 0.12982756 -0.03312917
-0.1301678 -0.05680999 0.017498985 -0.03300184 -0.121144354 -0.11074921 0.05219244 0.09633737
0.1271134 -0.019980952 0.038065787 -0.14039977 0.10199078 0.14296637 0.103505775 -0.069894075
0.14241643 -0.16742125 -0.021212608 -0.04380098 -0.17632882 -0.10084683 -0.128797 0.034930926
-0.008258393 0.056542672 -0.039766714 0.16732354 0.016634483 0.15680861 0.11896327 -0.14991578
-0.11871808 0.10801955 0.16456822 -0.15088153 -0.0144146895 -0.06796375 0.13817668 0.14978172
00000000: dd2c 90bd edc9 acbd bb11 9abd b29c 92bd
00000010: 484b 8e3c 0e72 2d3e 1e34 d4bd f2e5 a8bd
00000020: 05b1 f2bd 00ce dbbb 5012 4b3c 3e80 f8bd
00000030: a015 c33d b059 22be 9e98 213e 9d18 c13c
00000040: d81e 8fbc 36a2 81bd 9a41 963d 9b39 063e
00000050: 27ce ecbd dc7e 35bd 84f1 043e 74b2 07bd
00000060: b54a 05be 98b1 68bd 085a 8f3c f02c 07bd
00000070: 881a f8bd 7bd0 e2bd bdc7 553d 874c c53d
00000080: 042a 023e 18af a3bc dfea 1b3d f5c4 0fbe
00000090: 8be0 d03d c765 123e d6fa d33d a024 8fbd
000000a0: 9dd5 113e 7a70 2bbe 10c6 adbc a868 33bd
000000b0: 8b8f 34be c888 cebd 5ce3 03be bb13 0f3d
000000c0: 364e 07bc 4a99 673d 6ce2 22bd dd56 2b3e
000000d0: 0a45 883c 7092 203e 04a3 f33d 8683 19be
000000e0: 7722 f3bd 5b39 dd3d 9284 283e b080 1abe
000000f0: 972b 6cbc 9430 8bbd 307e 0d3e 6160 193e

fc.1.weight f4 [32, 64]
0.09097533 0.067267954 -0.011725128 0.115342245 -0.058493763 0.0061780214 -0.032889634 -0.09118822
-0.059235826 0.030307487 -0.01115264 -0.082806334 -0.015891418 0.021588251 -0.08745642 0.07549198
-0.10627349 0.0011959225 -0.10225287 -0.11271931 -0.015527695 0.11344689 0.11816791 0.044926077
0.096887365 -0.06833109 0.07037412 0.076270655 -0.11946249 -0.095791414 0.05400276 0.011550754
-0.08461 -0.09864034 0.09034115 0.013655171 -0.00027664006 -0.12083937 0.109674126 -0.08263248
0.05569844 -0.015030429 0.0040732175 0.06137629 -0.033298656 -0.035068244 0.099647984 -0.09578502
0.05562608 -0.03225884 -0.04176645 0.08367714 0.021103129 -0.11637688 0.11170289 -0.06202537
0.10806069 -0.039230525 0.121879876 0.036875203 -0.006038487 0.047716632 -0.0038871318 -0.061997965
0.06837614 0.08107747 -0.015659839 0.11757746 0.007938236 -0.074133724 -0.06811866 0.084103644
-0.050635934 0.07895091 -0.1214242 0.0043058842 -0.095761396 0.044340417 0.09286039 0.055352148
-0.0580758 -0.11726384 -0.065221675 -0.08258396 0.11936468 -0.06720789 0.038491156 0.10034573
0.045064732 -0.10968821 -0.025605232 -0.037099764 0.08053902 -0.0117255 -0.017050691 0.10293135
0.02106227 0.057944313 -0.049100302 0.08174674 0.008380643 -0.033183925 0.01850735 -0.0983931
-0.0047039557 0.05732663 -0.117048234 -0.0663975 0.07831518 0.0028347522 -0.0042577833 0.0047157067
-0.06518211 0.09452152 -0.0123940855 -0.055266496 0.07073808 -0.112900876 -0.031917583 0.012598544
-0.038792804 0.059361666 -0.11618671 -0.0360367 -0.061970625 0.11566664 0.043090306 -0.1019752
0.048445582 -0.0026508868 0.11442827 0.06898306 -0.073003456 0.11142373 -0.022356927 -0.028463677
0.03737846 0.124188855 0.03771612 -0.12060794 -0.039903134 0.116398335 -0.04405661 -0.060136855
-0.099635854 -0.06900166 -0.06834315 0.029853374 0.04994069 0.11929689 0.08203356 0.0018469989
0.06741199 0.0714484 -0.10781562 0.063074395 -0.08550842 0.0965271 -0.054367915 0.025935978
-0.0013300478 0.05799292 0.019442528 -0.09067437 0.050636336 0.07373704 -0.065095544 -0.081088334
-0.08511679 -0.060819417 -0.015759498 0.009346306 -0.0008816421 -0.033061147 0.07756978 0.006605923
-0.072581574 -0.03308125 -0.07349186 -0.044098333 -0.11791308 0.021841288 -0.0968546 0.048345685
0.08562997 -0.09299095 -0.06596643 -0.09876707 0.033358827 0.02418688 -0.06451845 0.0755101
0.05186835 -0.11294231 -0.00679937 -0.053811163 -0.021673769 0.0696006 -0.013445035 -0.08681421
0.08792932 -0.11425571 -0.042929128 0.04816419 0.110486135 0.12131782 -0.029365033 0.041712075
-0.109778926 -0.02432254 -0.03888206 0.035484225 -0.08190031 0.02700591 0.06457937 0.09741841
-0.021135941 0.114200786 -0.11810075 -0.035421774 0.04738936 0.032053307 0.0588672 -0.0829469
0.076966554 -0.117315575 -0.08570978 -0.008501023 -0.12143837 -0.11881611 -0.11096656 0.1004986
0.027419373 -0.03988391 -0.005137354 -0.10895233 -0.11805633 -0.08717239 -0.12092981 0.08223908
-0.043741375 -0.033743024 -0.1076432 0.02070263 -0.018754274 -0.08509846 0.080145076 0.10536371
-0.089097425 0.07082254 -0.02029711 -0.0011801273 0.05320607 -0.022789717 0.10620542 0.07690823
00000000: 4651 ba3d c8c3 893d c01a 40bc 8e38 ec3d
00000010: 2897 6fbd 0071 ca3b 48b7 06bd e4c0 babd
00000020: 44a1 72bd 6847 f83c 90b9 36bc 5e96 a9bd
00000030: b82e 82bc d8d9 b03c 5a1c b3bd 8a9b 9a3d
00000040: eaa5 d9bd 80c0 9c3a f469 d1bd 62d9 e6bd
00000050: e067 7ebc d856 e83d 0402 f23d 6804 383d
00000060: e26c c63d 2cf1 8bbd 4e20 903d ca33 9c3d
00000070: c0a8 f4bd 4a2e c4bd 0032 5d3d 603f 3d3c
00000080: 0248 adbd f203 cabd c804 b93d f0b9 5f3c
00000090: 000a 91b9 a27a f7bd d49c e03d 383b a9bd
000000a0: 0c24 643d 3042 76bc a078 853b b465 7b3d
000000b0: 2c64 08bd b8a3 0fbd 3e14 cc3d f02a c4bd
000000c0: 2cd8 633d d821 04bd 4c13 2bbd ec5e ab3d
000000d0: 78e0 ac3c 0057 eebd 7cc4 e43d 500e 7ebd
000000e0: ec4e dd3d 30b0 20bd 289c f93d 740a 173d
000000f0: 80de c5bb 8472 433d 40bf 7ebb 94f1 7dbd
00000100: ca08 8c3d f20b a63d 1049 80bc 74cc f03d
00000110: 600f 023c 6cd3 97bd cc81 8bbd 883e ac3d
00000120: a067 4fbd 04b1 a13d 40ad f8bd 6018 8d3b
00000130: 8d1e c4bd 4c9e 353d 972d be3d efb8 623d
00000140: e4e0 6dbd 0628 f0bd f192 85bd c721 a9bd
00000150: 7875 f43d 4aa4 89bd e7a8 1d3d 1082 cd3d
00000160: cc95 383d 36a4 e0bd 10c2 d1bc ecf5 17bd
00000170: a4f1 a43d 501c 40bc e4ad 8bbc accd d23d
00000180: c88a ac3c 0457 6d3d 661d 49bd d66a a73d
00000190: f74e 093c deeb 07bd ba9c 973c 5282 c9bd
000001a0: a423 9abb 54cf 6a3d fcb6 efbd 6afb 87bd
000001b0: b663 a03d 40c7 393b e084 8bbb 3786 9a3b
000001c0: 337e 85bd 8094 c13d 9010 4bbc 1f5f 62bd
000001d0: 20df 903d 9338 e7bd 03bc 02bd 206a 4e3c
000001e0: 34e5 1ebd 3825 733d 4cf3 edbd 389b 13bd
000001f0: e9d4 7dbd a2e2 ec3d 767f 303d 60d8 d0bd
00000200: e06e 463d 80ba 2dbb 5e59 ea3d fe46 8d3d
00000210: d682 95bd 2032 e43d e025 b7bc a82c e9bc
00000220: 281a 193d ba56 fe3d 387c 1a3d 4c01 f7bd
00000230: 7871 23bd 4062 ee3d b474 34bd 1052 76bd
00000240: e20d ccbd be50 8dbd 7ef7 8bbd 108f f43c
00000250: 9c8e 4c3d ee51 f43d 3601 a83d 0017 f23a
00000260: 4c0f 8a3d 8a53 923d 70ce dcbd 262d 813d
00000270: 0a1f afbd 00b0 c53d e4b0 5ebd b077 d43c
00000280: 0055 aeba fc89 6d3d f045 9f3c 7cb3 b9bd
00000290: 0c68 4f3d 7203 973d d050 85bd a411 a6bd
000002a0: b651 aebd c81d 79bd 101a 81bc 4021 193c
000002b0: 001e 67ba 206b 07bd e8dc 9e3d 8076 d83b
000002c0: a6a5 94bd 3480 07bd e682 96bd 74a0 34bd
000002d0: 6a7c f1bd 80ec b23c b45b c6bd 2006 463d
000002e0: c45e af3d 0a72 bebd 6819 87bd 6446 cabd
000002f0: 44a3 083d 9023 c63c 4022 84bd 0aa5 9a3d
00000300: e873 543d 4c4e e7bd 40cd debb 1869 5cbd
00000310: 308d b1bc c28a 8e3d 9048 5cbc a6cb b1bd
00000320: 4a14 b43d e6fe e9bd 74d6 2fbd d047 453d
00000330: 8e46 e23d 7a75 f83d f08e f0bc 48da 2a3d
00000340: c6d3 e0bd 1040 c7bc cc42 1fbd e857 113d
00000350: 5abb a7bd 803b dd3c 3042 843d 4e83 c73d
00000360: 4825 adbc 1ae2 e93d cede f1bd 6c16 11bd
00000370: 581b 423d 544a 033d bc1e 713d 10e0 a9bd
00000380: a4a0 9d3d 2643 f0bd 9c88 afbd e047 0bbc
00000390: aeb4 f8bd dc55 f3bd 7042 e3bd 36d2 cd3d
000003a0: 989e e03c 505d 23bd 4057 a8bb 6622 dfbd
000003b0: 84c7 f1bd 7087 b2bd 0caa f7bd f66c a83d
000003c0: 282a 33bd 2036 0abd 0a74 dcbd 9098 a93c
000003d0: 90a2 99bc 1a48 aebd 1a23 a43d eec8 d73d
000003e0: b678 b6bd 680b 913d 2046 a6bc 80ae 9aba
000003f0: 9cee 593d 80b1 babc 3a82 d93d 1082 9d3d

fc.1.bias f4 [32]
-0.043394983 0.0534813 -0.031174913 -0.060229763 -0.12331714 0.064965524 -0.0028067231 0.04763234
0.009874102 -0.09295945 -0.049720425 0.069594026 -0.061213344 -0.057594076 0.060110264 -0.05711425
0.009629715 -0.060768276 0.03900398 0.012715593 -0.099219725 -0.09912304 0.0683577 -0.040936902
0.065075345 0.0004994827 -0.042746365 -0.03276167 -0.056950852 0.0590917 0.07576045 -0.003893301
00000000: f0be 31bd 350f 5b3d 8862 ffbc 7cb3 76bd
00000010: b28d fcbd a50c 853d 00f1 37bb 211a 433d
00000020: fcc6 213c 8661 bebd a5a7 4bbd 5087 8e3d
00000030: d8ba 7abd c4e7 6bbd 2e36 763d a2f0 69bd
00000040: f4c5 1d3c 28e8 78bd a3c2 1f3d 1055 503c
00000050: b633 cbbd 0501 cbbd 1fff 8b3d 74ad 27bd
00000060: 3946 853d b7ef 023a d016 2fbd 1a31 06bd
00000070: 4c45 69bd 230a 723d 4b28 9b3d c026 7fbb

fc.4.weight f4 [2, 32]
-0.11396373 0.121296436 0.14384396 0.12051086 -0.0031995177 0.0749882 0.00899148 -0.05450859
-0.16513953 -0.021607175 0.07195871 0.08511207 0.042044446 0.08061127 0.12584172 -0.023630975
0.10133741 -0.0037130713 -0.055816717 -0.068646766 -0.10302601 -0.1391038 0.017275624 0.16335075
0.01639338 0.017887069 -0.06631646 -0.07883894 -0.055405997 0.06337447 0.045219548 -0.06495078
0.03463854 -0.025102539 -0.01204133 0.12534623 -0.07366251 0.13340983 -0.09669104 0.15114217
0.056510214 0.07098098 -0.035939552 -0.03017117 -0.12930584 -0.16952477 0.108583316 0.16093472
0.064789794 -0.0691466 0.032035585 -0.0066205114 -0.15280755 -0.13862588 0.08459711 -0.051614583
-0.03330905 -0.100577794 0.07796131 -0.08005215 -0.056455135 0.092395335 0.15519835 0.1575955
00000000: d165 e9bd 446a f83d d54b 133e 66ce f63d
00000010: 00af 51bb 6a93 993d 0051 133c 6644 5fbd
00000020: 561a 29be 8801 b1bc 175f 933d 3d4f ae3d
00000030: cc36 2c3d 8617 a53d a7dc 003e bf95 c1bc
00000040: fd89 cf3d 0057 73bb 12a0 64bd ad96 8cbd
00000050: 4dff d2bd 3a71 0ebe 9c85 8d3c 6b45 273e
00000060: 694b 863c e787 923c edd0 87bd 4f76 a1bd
00000070: 66f1 62bd 79ca 813d 2238 393d ea04 85bd
00000080: 24e1 0d3d d7a3 cdbc 0049 45bc c35a 003e
00000090: 5fdc 96bd 969c 083e f405 c6bd 03c5 1a3e
000000a0: 4177 673d 7a5e 913d 5a35 13bd 8829 f7bc
000000b0: c068 04be e797 2dbe ee60 de3d 12cc 243e
000000c0: 83b0 843d bc9c 8dbd bf37 033d e0f0 d8bb
000000d0: 9579 1cbe f1f3 0dbe 4041 ad3d d069 53bd
000000e0: 126f 08bd bbfb cdbd 2eaa 9f3d 62f2 a3bd
000000f0: 803d 67bd c439 bd3d 51ec 1e3e b760 213e

fc.4.bias f4 [2]
0.071302235 0.004565985
00000000: e806 923d 429e 953b
