eeg_cnn_model.pt (torch, 502232 bytes, 12 tensors)

conv1.0.weight f4 [32, 64, 50]
0.011365192 0.015249474 -0.0013185539 0.019574387 -0.0009825113 0.0046522776 -0.009368962 0.009452244
0.015921744 -0.00798577 0.021335475 0.008617298 0.01595492 2.6857457e-05 -0.00079405395 -0.016307872
0.004698803 -0.004170531 -0.011641973 0.006780276 0.008718529 0.012274033 0.002870677 0.017255504
-0.022436135 -0.017928433 -0.012624545 -0.014291506 0.00786007 -0.009837116 0.023298528 -0.016458392
0.0110945 0.0022267916 -0.004129325 0.015534064 0.009443593 0.017849533 0.0033644969 -0.0063460167
-0.00016127361 -0.014177034 -0.0006701885 0.008874069 0.004523612 -0.010493578 0.015344454 0.006348644
0.009296593 -0.008696716 -0.017126272 -0.0065018022 -0.014458479 0.013199965 0.00667585 0.008396285
0.005405185 -0.00014049165 0.016400859 -0.0034615884 0.009871873 -0.006856957 0.007834893 -0.008918554
-0.0031559921 -0.013968933 0.007627853 -0.015291995 -0.014665931 -0.008945046 0.027187146 0.013288122
0.021419553 -0.013715147 -0.02243002 -0.017277844 -0.012975727 0.007671425 0.0126928 0.020752877
-0.005243673 -0.013224097 0.0067913295 -0.0076111476 0.014767729 0.0006636461 0.017354136 -0.008614366
-0.0067812135 0.0037690045 -0.0034399296 -0.016628234 0.0002871975 0.0045761643 -0.018509103 -0.013435189
0.015633024 -0.0050512706 -0.003717651 -0.008648963 -0.008782966 0.005103927 -0.0035653352 -0.014893199
-0.0013208889 -0.012045222 -0.016149456 -0.010328406 -0.013720255 -0.0035684723 0.024374317 0.0077307043
0.007987419 -0.017120728 -0.016790615 -0.012316713 -0.002075222 -0.019981012 -0.0125671895 -0.015360857
-0.0012967674 -0.004490023 -0.0003086619 -0.013504143 -0.01573471 -0.012013923 -0.005857372 -0.012864861
0.02063807 0.0023761496 0.020756323 0.010793967 -0.012943942 0.015183427 0.0016935485 -0.0012379078
-0.008917498 -0.013031914 0.005347469 -0.009603729 -0.0015718061 -0.026741685 0.0031315952 -0.018901458
-0.0072902315 -0.0005165292 0.0056611137 0.011803609 0.015917085 -0.0056609977 0.008368327 -0.0023585563
-0.001256706 -0.016212111 0.011708934 -0.015216093 0.0072919745 0.0056237374 0.008851725 -0.0017240766
0.019904278 0.0062285997 0.004588553 -0.014428705 0.0062151486 -0.0061289812 -0.012109249 0.00994995
-0.0023086015 -0.014654987 -0.011210173 -0.0007500009 0.008846441 -0.0076999343 -0.012988203 -0.006791452
-0.01194166 0.008600133 0.01811628 -0.013069181 0.0069098244 0.013350263 0.006334286 -0.00073212496
0.019783963 0.014886011 0.011630872 0.0010063413 -0.0037854812 -0.0029061781 -0.010526106 -0.016139418
0.0018138841 0.009860377 -0.003745922 -0.00914301 -0.0051016123 -0.0051212995 0.004699563 0.01185721
-0.011579055 -0.0012865736 0.014012436 0.003450425 -0.0049182596 -0.012065952 -0.011825947 -0.015544877
-0.0031843954 0.011213012 0.013510414 0.009572302 -0.013737969 -0.00871625 -0.002182137 0.012867109
-0.0028851586 -0.01075003 0.0014312488 -0.010892129 -0.01459032 0.008564059 -0.009924228 -0.0045802537
-0.01673564 0.013782759 0.016166281 0.008113134 -0.010655452 -0.01602377 -0.013528539 0.0152745955
0.010473802 0.020186057 0.018243272 0.010522836 0.0051805424 -0.009999794 -0.018989205 -0.02228375
0.00022979769 -0.018358383 -0.0123397065 -0.013493566 -0.005527163 -0.016990904 -0.014543122 0.0042420635
-0.003690659 0.01613629 -0.0007797916 -0.0070672734 -0.0014803442 -0.012368837 -0.0094840685 -0.017977618
00000000: 1235 3a3c eed8 793c 54d3 acba 775a a03c
00000010: 9cc7 80ba 2272 983b 4680 19bc 96dd 1a3c
00000020: 516e 823c bfd6 02bc bcc7 ae3c 912f 0d3c
00000030: e4b3 823c f34b e137 0f28 50ba 1698 85bc
00000040: 6bf8 993b f3a8 88bb f9bd 3ebc 142d de3b
00000050: 29d8 0e3c 0719 493c f821 3c3b 6a5b 8d3c
00000060: fccb b7bc a6de 92bc 2ed7 4ebc ec26 6abc
00000070: 86c7 003c db2b 21bc 8edc be3c c0d3 86bc
00000080: b5c5 353c 5def 113b 4a4f 87bb 9682 7e3c
00000090: 4db9 1a3c 2f39 923c e47e 5c3b 3ff2 cfbb
000000a0: 8e1b 29b9 ca46 68bc 97af 2fba 8b64 113c
000000b0: cf3a 943b 42ed 2bbc 4e67 7b3c 4908 d03b
000000c0: bd50 183c ac7c 0ebc 654c 8cbc 120d d5bb
000000d0: 42e3 6cbc aa44 583c 17c1 da3b 9290 093c
000000e0: fa1d b13b f150 13b9 185b 863c d1db 62bb
000000f0: a3bd 213c 53b0 e0bb ec5d 003c 201f 12bc
00000100: c3d4 4ebb f4dd 64bc 12f3 f93b 478b 7abc
00000110: 6049 70bc 3e8e 12bc 94b7 de3c 6cb6 593c
00000120: 0f78 af3c 7fb5 60bc 29bf b7bc 448a 8dbc
00000130: 2598 54bc 9460 fb3b 76f5 4f3c f001 aa3c
00000140: 1ed3 abbb e2a9 58bc cd89 de3b ef66 f9bb
00000150: 58f4 713c 89f8 2d3a 432a 8e3c 4523 0dbc
00000160: f134 debb 6701 773b 7170 61bb ef37 88bc
00000170: ff92 9639 a6f3 953b 67a0 97bc 441f 5cbc
00000180: d410 803c 2185 a5bb d5a3 73bb 61b4 0dbc
00000190: 6ee6 0fbc d83e a73b 66a8 69bb 9b02 74bc
000001a0: ad21 adba 5359 45bc dd4b 84bc 7938 29bc
000001b0: ecca 60bc 08dd 69bb a6ac c73c d951 fd3b
000001c0: aadd 023c c540 8cbc 798c 89bc 0acc 49bc
000001d0: 7300 08bb 38af a3bc 9de6 4dbc 1bac 7bbc
000001e0: 4bf8 a9ba 0b21 93bb e6d3 a1b9 7b40 5dbc
000001f0: 14e6 80bc 0cd6 44bc 33ef bfbb 23c7 52bc
00000200: 2b11 a93c 2db9 1b3b 2a09 aa3c 2ed9 303c
00000210: d412 54bc e9c3 783c 0ffa dd3a 4b41 a2ba
00000220: b31a 12bc cf83 55bc d239 af3b f558 1dbc
00000230: 1005 ceba 6111 dbbc 733b 4d3b 3bd7 9abc
00000240: e5e2 eebb b067 07ba dd80 b93b ed63 413c
00000250: 8c64 823c e47f b9bb 4f1b 093c 0292 1abb
00000260: 0eb8 a4ba 43cf 84bc d4d6 3f3c eb4c 79bc
00000270: 84f1 ee3b 5447 b83b d306 113c 69fa e1ba
00000280: 4c0e a33c 4819 cc3b 935b 963b 6066 6cbc
00000290: 72a8 cb3b 9fd5 c8bb df65 46bc 1d05 233c
000002a0: e84b 17bb 781b 70bc e0aa 37bc b59b 44ba
000002b0: aaf0 103c bb4f fcbb 79cc 54bc d48a debb
000002c0: f4a6 43bc 92e7 0c3c 9868 943c 1e20 56bc
000002d0: cf6b e23b 10bb 5a3c d88f cf3b 13ec 3fba
000002e0: fa11 a23c 75e4 733c 6a8f 3e3c 36e7 833a
000002f0: d615 78bb 9475 3ebb b075 2cbc d036 84bc
00000300: dabf ed3a 6b8d 213c 247e 75bb 90cc 15bc
00000310: 6d2b a7bb 93d0 a7bb cbfe 993b be44 423c
00000320: 14b6 3dbc 3fa2 a8ba 6b94 653c 8720 623b
00000330: 5a29 a1bb 45b0 45bc 9ec1 41bc f1af 7ebc
00000340: 4ab1 50bb c8b6 373c c95a 5d3c 25d5 1c3c
00000350: 3815 61bc 9ace 0ebc 2f02 0fbb 91d0 523c
00000360: ee14 3dbb e520 30bc be98 bb3a e674 32bc
00000370: 3d0c 6fbc 4450 0c3c 3b99 22bc f415 96bb
00000380: 2e19 89bc 15d1 613c 266f 843c f3ec 043c
00000390: 3494 2ebc 4844 83bc cea6 5dbc 4c42 7a3c
000003a0: 4f9a 2b3c 3b5d a53c ea72 953c f967 2c3c
000003b0: 8ac1 a93b 2dd6 23bc 408f 9bbc 698c b6bc
000003c0: d9f5 7039 5264 96bc 7b2c 4abc 1e14 5dbc
000003d0: 341d b5bb 8230 8bbc 4646 6ebc 0201 8b3b
000003e0: fcde 71bb 4130 843c ee6a 4cba 9694 e7bb
000003f0: 1c08 c2ba aaa6 4abc 1163 1bbc cc45 93bc

conv1.1.weight f4 [32]
1.0022194 0.98515856 0.99265003 0.9917729 1.0363064 0.98543 0.9940792 1.008205
1.0119803 1.0000638 0.9849582 0.9997984 1.0058913 0.9967222 1.0149676 1.0173205
0.98698753 0.99763185 0.990209 0.988132 0.99807477 0.9936982 0.9881616 0.9896193
1.0303813 0.99798626 1.0021125 1.006075 1.0100155 1.010929 0.9999375 0.9980711
00000000: ba48 803f 5a33 7c3f 501e 7e3f d4e4 7d3f
00000010: b0a5 843f 2445 7c3f f97b 7e3f dd0c 813f
00000020: 9288 813f 1702 803f 3826 7c3f caf2 7f3f
00000030: 0cc1 803f 3029 7f3f 75ea 813f 8f37 823f
00000040: 37ab 7c3f cd64 7f3f 567e 7d3f 38f6 7c3f
00000050: d481 7f3f 0163 7e3f 29f8 7c3f b157 7d3f
00000060: 89e3 833f 077c 7f3f 3945 803f 11c7 803f
00000070: 3048 813f 1f66 813f e7fb 7f3f 9681 7f3f

conv1.1.bias f4 [32]
-0.0091561135 -0.022658294 -0.026072068 -0.023316033 -0.01863518 -0.021528494 -0.022497512 -0.011057259
-0.020629251 -0.0098269 -0.014447424 -0.02042503 -0.015903942 -0.016880432 -0.020403838 -0.012516757
-0.028404674 -0.023985267 -0.015479576 -0.02714965 -0.033598505 -0.028121753 -0.017983142 -0.027499938
-0.00872391 -0.017600603 -0.026452083 -0.014262105 -0.012907497 -0.019213844 -0.022145938 -0.018854244
00000000: 8603 16bc e39d b9bc 1795 d5bc 4401 bfbc
00000010: cea8 98bc 865c b0bc b44c b8bc 8129 35bc
00000020: adfe a8bc 0201 21bc e3b4 6cbc 6452 a7bc
00000030: fc48 82bc d548 8abc f325 a7bc 1513 4dbc
00000040: ebb0 e8bc c07c c4bc 0c9e 7dbc f168 debc
00000050: 969e 09bd 975f e6bc 6251 93bc 8d47 e1bc
00000060: bbee 0ebc 242f 90bc 0ab2 d8bc 9bab 69bc
00000070: f779 53bc 5a66 9dbc 666b b5bc 3774 9abc

conv1.1.running_mean f4 [32]
-0.0029395048 0.0005360255 -0.0006037454 -2.7362556e-05 0.0010847809 -0.0011213357 -0.0033557578 0.0015196652
0.0021134117 -0.002920841 -0.0013708264 0.0006606383 0.0023688911 -0.0019053984 0.0015476343 0.00018113914
-0.00058925647 0.0002879815 -7.612197e-05 0.0009208575 -0.00034800678 0.0009742099 -0.001839292 0.0026215129
0.0013730028 -0.0011313934 0.0022479568 0.0010506038 -0.0009805938 0.00018715413 0.0009004861 0.0031328918
00000000: b5a4 40bb 1084 0c3a ab44 1eba a488 e5b7
00000010: 352f 8e3a c8f9 92ba 46ec 5bbb 812f c73a
00000020: 2a81 0a3b 956b 3fbb 4dad b3ba b02e 2d3a
00000030: 663f 1b3b 90be f9ba fdd9 ca3a 2bf0 3d39
00000040: 5578 1aba 39fc 9639 aca3 9fb8 b365 713a
00000050: ae74 b6b9 1f62 7f3a 6614 f1ba b0cd 2b3b
00000060: 54f6 b33a 434b 94ba 7552 133b 6ab4 893a
00000070: 4587 80ba ce3e 4439 990e 6c3a 3451 4d3b

conv1.1.running_var f4 [32]
13.387453 11.620216 11.950655 15.701593 6.555466 17.619865 13.432704 13.676985
3.0864794 8.648485 8.6257105 11.579167 8.161758 10.031236 7.058857 3.746613
8.224891 5.0789056 6.52651 6.1543226 8.817053 10.750545 11.048576 6.035105
10.637162 10.4910555 8.970647 5.442389 5.0319858 3.8943355 9.580791 10.964075
00000000: 0233 5641 68ec 3941 e235 3f41 ba39 7b41
00000010: 61c6 d140 7cf5 8c41 5bec 5641 eed4 5a41
00000020: e188 4540 3260 0a41 e902 0a41 4544 3941
00000030: 9096 0241 f17f 2041 28e2 e140 82c8 6f40
00000040: 2799 0341 6586 a240 2bd9 d040 36f0 c440
00000050: a612 0d41 3b02 2c41 f8c6 3041 951f c140
00000060: d131 2a41 5ddb 2741 c587 0f41 0d28 ae40
00000070: 0706 a140 cb3c 7940 ec4a 1941 da6c 2f41

conv2.0.weight f4 [64, 32, 8]
-0.03350386 0.0426211 0.0012433317 -0.03614739 -0.0044050924 0.0286041 0.0061372905 -0.010216531
0.0068529076 -0.0029048678 -0.04438674 0.02940994 0.011375739 -0.008087027 -0.022855166 -0.030124996
-0.023380244 -0.0009002893 -0.06548811 -0.034665592 0.04967085 -0.0465628 0.012012903 0.055268858
-0.026768278 0.060708955 -0.049986523 0.033520784 0.013034581 0.054734066 -0.024338296 0.048236273
0.057837468 -0.05466859 -0.03412198 -0.06847211 -0.0046184235 0.017649142 -0.04413491 0.033415403
0.028968995 0.016915074 -0.03834743 -0.00038456207 0.03983291 -0.04150424 0.013131262 0.051776346
-0.029548721 0.03344147 -0.03245719 -0.048948493 0.042682376 -0.052681383 -0.00011034777 0.03298277
0.014112732 0.005269227 0.04533722 -0.0053665177 -0.068584196 0.029153941 -0.007385135 -0.021639496
-0.007235285 -0.053508032 -0.03840074 -0.011985746 -0.038477115 -0.035301965 -0.026828319 0.06316838
-0.015798036 0.050790507 -0.06561616 -0.034618698 0.029196374 0.03961581 -0.036065098 0.032942697
0.031968355 -0.031899195 0.03793761 -0.052030917 0.0038364825 0.065672055 0.034129135 -0.0437603
0.07997769 0.01724584 -0.058496006 -0.03621483 -0.005019609 -0.051761772 0.041193515 0.021714691
-0.016666671 0.0073759034 -0.06252694 -0.0054974547 0.042087063 0.0050877575 -0.054851796 -0.06601874
0.05092683 0.029753981 0.040627323 -0.059447408 0.019995537 0.055118185 0.052913476 -0.03841851
-0.028884828 0.051480286 0.031455394 -0.02379171 0.029902676 -0.028567787 0.038586132 0.0018608487
0.030122966 -0.026566902 0.054476317 -0.0023129787 0.04742604 0.0038740295 0.04655383 -0.045909837
0.0018863791 0.032194242 -0.032204296 -0.04044303 -0.03318608 0.0025401744 -0.05097556 0.054921262
0.055587057 -0.057651922 -0.025136977 0.04503941 -0.011916489 0.06898436 -0.045844313 -0.01132293
-0.023066856 -0.059877794 -0.013466354 -0.042729292 0.058005843 0.04194017 0.011821359 0.057766274
0.048790712 0.038098346 0.0074198633 0.019706873 0.008001994 0.024612878 -0.0028304015 0.042930163
-0.055503704 0.03404982 -0.011159722 0.048087906 -0.064653136 -0.03835294 0.032268383 0.045955915
0.024354944 0.027243976 0.018089535 -0.013952845 0.032552175 -0.035663925 -0.001455134 -0.016609384
0.010055783 -0.005594865 -0.045025624 -0.048406806 -0.0068443334 0.045148987 -0.053876523 0.009138933
-0.066145465 -0.05154934 0.042739287 -0.014698145 0.0053491956 0.036561552 0.037771385 0.0067778975
-0.0042224554 0.023927039 0.025192197 0.04635536 0.0389603 -0.016169747 -0.021288984 -0.0006368071
-0.02172283 0.048658367 0.042625245 -0.046131276 -0.015616414 0.03102514 -0.007979831 0.02779088
0.011323032 0.023863401 0.0375723 0.043443784 0.00083917484 -0.06033354 -0.06673152 0.010413666
0.04228714 -0.015442533 0.044638548 0.0078773685 0.042538278 -0.032174338 -0.057160895 -0.033841062
-0.03959246 -0.020412344 -0.030139117 -0.036196288 0.025707211 -0.019282484 -0.037704982 0.042751662
0.018276105 0.02245757 -0.005219899 -0.009173876 0.05032651 0.016985014 -0.010017835 0.020806074
0.002365727 -0.015396887 -0.027327785 0.01857962 -0.008473409 0.058201544 0.020860069 -0.0052273204
0.02895441 -0.009556846 -0.048070535 -0.053676996 0.030678796 -0.037700668 0.05512676 0.030358503
00000000: 583b 09bd 7693 2e3d 4af7 a23a 490f 14bd
00000010: 9858 90bb 2553 ea3c 531b c93b 3d63 27bc
00000020: 5b8e e03b 985f 3ebb dfce 35bd 1ded f03c
00000030: 4f61 3a3c 737f 04bc c23a bbbc b2c8 f6bc
00000040: ed87 bfbc 6401 6cba a11e 86bd 82fd 0dbd
00000050: a973 4b3d a2b8 3ebd c4d1 443c 9961 623d
00000060: 2649 dbbc f4a9 783d abbe 4cbd 174d 093d
00000070: ff8e 553c d430 603d 1b61 c7bc 6693 453d
00000080: fbe6 6c3d 2cec 5fbd 7dc3 0bbd 1b3b 8cbd
00000090: 2556 97bb ef94 903c cfc6 34bd 97de 083d
000000a0: 6350 ed3c 7b91 8a3c 3212 1dbd 0c9f c9b9
000000b0: d527 233d 5a00 2abd 8124 573c 6f13 543d
000000c0: 2910 f2bc ecf9 083d d5f1 04bd 377e 48bd
000000d0: b7d3 2e3d 6fc8 57bd 826a e7b8 f118 073d
000000e0: 1739 673c 7ba9 ac3b 85b3 393d 9dd9 afbb
000000f0: df75 8cbd 3fd4 ee3c 01ff f1bb 5045 b1bc
00000100: f815 edbb 3d2b 5bbd 184a 1dbd dd5f 44bc
00000110: 2e9a 1dbd cb98 10bd 10c7 dbbc 6c5e 813d
00000120: e26a 81bc b509 503d c461 86bd 56cc 0dbd
00000130: 3c2d ef3c 3044 223d ffb8 13bd ecee 063d
00000140: 40f1 023d bba8 02bd 7864 1b3d 5f1e 55bd
00000150: 7f6d 7b3b 127f 863d feca 0b3d 003e 33bd
00000160: 58cb a33d 2647 8d3c 8299 6fbd 0056 14bd
00000170: 887b a4bb 2704 54bd 88ba 283d 02e3 b13c
00000180: 8b88 88bc 90b1 f13b 200e 80bd fe23 b4bb
00000190: 7c63 2c3d 34b7 a63b 47ac 60bd d534 87bd
000001a0: a798 503d 9fbe f33c d668 263d 207f 73bd
000001b0: aecd a33c 9bc3 613d cdbb 583d ba5c 1dbd
000001c0: e09f ecbc fedc 523d 5fd7 003d d5e6 c2bc
000001d0: 75f6 f43c fe06 eabc 7e0c 1e3d b9e7 f33a
000001e0: 70c4 f63c d5a2 d9bc 8f22 5f3d 5895 17bb
000001f0: cf41 423d 6ee3 7d3b 3baf 3e3d f40b 3cbd
00000200: 6140 f73a 1cde 033d a7e8 03bd 97a7 25bd
00000210: 21ee 07bd 0e79 263b c0cb 50bd 1ef5 603d
00000220: 41af 633d 6c24 6cbd 10ec cdbc 3f7b 383d
00000230: 613d 43bc ac47 8d3d 3fc7 3bbd d083 39bc
00000240: b4f6 bcbc 6b42 75bd fca1 5cbc e904 2fbd
00000250: 8997 6d3d 75c9 2b3d 60ae 413c 549c 6c3d
00000260: c5d8 473d 030d 1c3d 5322 f33b 4f70 a13c
00000270: cc1a 033c f2a0 c93c 427e 39bb 8ad7 2f3d
00000280: da57 63bd d377 0b3d 44d7 36bc d3f7 443d
00000290: dd68 84bd f917 1dbd da2b 043d 453c 3c3d
000002a0: 0584 c73c c22e df3c 8130 943c 799a 64bc
000002b0: 6e55 053d 5614 12bd 32ba beba 6710 88bc
000002c0: 03c1 243c 2155 b7bb ca6c 38bd 3746 46bd
000002d0: 6e46 e0bb 25ee 383d a1ad 5cbd 77bb 153c
000002e0: 4677 87bd 6725 53bd 640f 2f3d 7dd0 70bc
000002f0: 4e48 af3b 91c1 153d 2bb6 1a3d 2019 de3b
00000300: 865c 8abb a302 c43c de5f ce3c 1edf 3d3d
00000310: d694 1f3d 6b76 84bc 3c66 aebc 67ef 26ba
00000320: 14f4 b1bc ff4d 473d cf97 2e3d 26f4 3cbd
00000330: fddb 7fbc 6f28 fe3c d6bd 02bc b3a9 e33c
00000340: 3d84 393c 2e7d c33c 69e5 193d 1cf2 313d
00000350: 12fc 5b3a 4d20 77bd 89aa 88bd 159e 2a3c
00000360: 4835 2d3d ae02 7dbc e9d6 363d 1410 013c
00000370: 9e3c 2e3d 3dc9 03bd 8b21 6abd ed9c 0abd
00000380: b42b 22bd ca37 a7bc 4fe6 f6bc 8f42 14bd
00000390: ee97 d23c 4df6 9dbc 8a70 1abd 5e1c 2f3d
000003a0: c5b7 953c f0f8 b73c b00b abbb 064e 16bc
000003b0: 2c23 4e3d 2824 8b3c d821 24bc 8071 aa3c
000003c0: 500a 1b3b 3a43 7cbc 85de dfbc 4a34 983c
000003d0: 0ed4 0abc be64 6e3d bce2 aa3c f149 abbb
000003e0: cd31 ed3c 5194 1cbc 9ce5 44bd 69dc 5bbd
000003f0: 1952 fb3c 046c 1abd 99cc 613d 65b2 f83c

conv2.1.weight f4 [64]
0.99760425 0.9996321 0.9990573 1.0067464 1.0075464 1.0047615 1.0045068 1.0014548
1.0128903 1.0053871 0.99330145 1.0028119 1.0116174 1.0016842 1.0109165 1.0022985
1.005013 0.99891204 1.0048395 1.0290042 1.001263 1.0032046 1.0001829 0.99816304
1.0025352 1.0008678 0.9982604 1.0191109 1.0144812 0.9973386 1.000142 0.9997358
1.003354 1.0116256 1.0072794 1.0026134 1.0155123 1.0065823 1.0075523 1.0018916
1.0068508 1.0006721 1.0024906 0.99727756 1.0091904 1.0044953 1.0066956 1.0088036
1.0283037 1.01287 1.0017011 1.0127125 1.0040902 1.013742 1.0199631 1.004639
1.0077792 1.0075593 1.0012805 1.0145128 1.0121208 0.99835867 1.003787 0.9914984
00000000: fe62 7f3f e4e7 7f3f 38c2 7f3f 11dd 803f
00000010: 48f7 803f 069c 803f ae93 803f ac2f 803f
00000020: 64a6 813f 86b0 803f 0149 7e3f 245c 803f
00000030: ae7c 813f 3037 803f b665 813f 514b 803f
00000040: 44a4 803f b3b8 7f3f 959e 803f 69b6 833f
00000050: 6329 803f 0269 803f fe05 803f 9d87 7f3f
00000060: 1353 803f 701c 803f fe8d 7f3f 3a72 823f
00000070: 85da 813f 9551 7f3f a704 803f afee 7f3f
00000080: e76d 803f f37c 813f 88ee 803f a355 803f
00000090: 4ffc 813f b0d7 803f 79f7 803f fc3d 803f
000000a0: 7de0 803f 0616 803f 9d51 803f 954d 7f3f
000000b0: 272d 813f 4d93 803f 67db 803f 7a20 813f
000000c0: 759f 833f b9a5 813f be37 803f 90a0 813f
000000d0: 0786 803f 4cc2 813f 278e 823f 0398 803f
000000e0: e9fe 803f b4f7 803f f629 803f 8edb 813f
000000f0: 2d8d 813f 6f94 7f3f 187c 803f d7d2 7d3f

conv2.1.bias f4 [64]
-0.0076025343 -0.0076800315 -0.008170957 -0.0058325734 -0.0088969115 -0.0029217154 -0.015781729 -0.012495131
-0.01376346 -0.005135476 -0.011920592 -0.0055094156 -0.0045213187 -0.0073918602 -0.018334573 -0.01592707
-0.014587296 -0.008817332 -0.0064211427 -0.015002088 -0.0050894045 -0.012397837 -0.004941124 -0.00682539
-0.0044927173 -0.0046718414 -0.006119826 -0.0067935297 -0.003189037 -0.014651248 -0.0064070835 -0.014594272
-0.0024117841 -0.013594983 -0.014051521 -0.0055587147 -0.015013801 -0.004142621 -0.0042427345 -0.0069376063
-0.008935764 -0.0070424103 -0.01026607 -0.016820865 -0.007902872 -0.009092447 -0.0046908907 -0.012069766
-0.014437895 -0.0077671004 -0.007127667 -0.011710945 -0.004326348 -0.01108383 -0.011663238 -0.0050526657
-0.0066978876 -0.017762821 -0.004787476 -0.012674362 -0.01915248 -0.011469755 -0.0046821255 -0.017962847
00000000: ae1e f9bb c6a8 fbbb 7adf 05bc 2c1f bfbb
00000010: 5ac4 11bc 407a 3fbb af48 81bc 61b8 4cbc
00000020: 2380 61bc 7f47 a8bb 964e 43bc 5488 b4bb
00000030: 9227 94bb 6b37 f2bb 6332 96bc 7d79 82bc
00000040: 8eff 6ebc 9276 10bc 7368 d2bb 51cb 75bc
00000050: 05c5 a6bb 4c20 4bbc 27e9 a1bb 85a7 dfbb
00000060: a537 93bb 3f16 99bb d288 c8bb 429c debb
00000070: 2aff 50bb ca0b 70bc 83f2 d1bb d01c 6fbc
00000080: 060f 1ebb 7ebd 5ebc 5a38 66bc e125 b6bb
00000090: 72fc 75bc d3be 87bb a306 8bbb dc54 e3bb
000000a0: 5067 12bc 05c4 e6bb 0533 28bc e9cb 89bc
000000b0: 0c7b 01bc 7df8 14bc 0bb6 99bb 45c0 45bc
000000c0: ec8c 6cbc 2983 febb 348f e9bb 43df 3fbc
000000d0: 0ac4 8dbb f498 35bc 2a17 3fbc d590 a5bb
000000e0: f479 dbbb 5683 91bc 42e0 9cbb 21a8 4fbc
000000f0: a9e5 9cbc a4eb 3bbc 846c 99bb d226 93bc

conv2.1.running_mean f4 [64]
0.15129498 -0.35509646 -0.18140748 0.06258529 -0.15156442 -0.7530943 0.5247097 0.43688288
0.122385725 0.69607824 0.09246521 0.26939738 0.33760545 -0.09095891 0.20472302 0.33521226
0.31684107 -0.3493858 0.41624314 -0.17725343 0.033346113 -0.3619176 -0.21631314 -0.24693543
0.09372593 -0.3323349 -0.5505609 0.8318018 -0.70530933 -0.42184487 -0.610992 0.34255576
0.48548862 -0.46991837 -0.27225634 -0.15320864 0.16458671 0.03752359 -0.5677949 -0.0068231733
-0.33046144 0.042928822 0.0145637905 0.7827848 -0.7821939 -0.06699904 0.49059123 0.22672415
0.62538546 0.16302022 -0.03391803 -0.13474716 -0.37033653 0.77868205 0.21913452 0.70939094
-1.2057527 -0.91436714 -0.24727951 0.39558414 0.50481856 0.060731493 -0.6806704 -0.40154564
00000000: 12ed 1a3e 34cf b5be e2c2 39be b72c 803d
00000010: b433 1bbe caca 40bf 6053 063f 1daf df3e
00000020: 5ea5 fa3d 2f32 323f 665e bd3d 74ee 893e
00000030: 9fda ac3e aa48 babd e9a2 513e f1a0 ab3e
00000040: fe38 a23e b2e2 b2be d21d d53e ec81 35be
00000050: ef95 083d 434d b9be 3181 5dbe a4dc 7cbe
00000060: 61f3 bf3d cd27 aabe 8ff1 0cbf f6f0 543f
00000070: 278f 34bf 0dfc d7be f969 1cbf 7863 af3e
00000080: f791 f83e 2499 f0be 2f65 8bbe bae2 1cbe
00000090: 6b89 283e 56b2 193d 025b 11bf ed94 dfbb
000000a0: 3e32 a9be 22d6 2f3d f79c 6e3c 9664 483f
000000b0: dc3d 48bf cb36 89bd c62e fb3e 602a 683e
000000c0: 4319 203f c6ee 263e a2ed 0abd 29fb 09be
000000d0: c09c bdbe b557 473f cd64 603e a59a 353f
000000e0: 1b56 9abf f713 6abf d736 7dbe 018a ca3e
000000f0: ca3b 013f 96c1 783d 6a40 2ebf 6497 cdbe

conv2.1.running_var f4 [64]
0.37629285 0.5686066 0.47519183 0.32339105 0.38901603 0.43787128 0.3548491 0.49709183
0.29774433 0.47107977 0.44224125 0.34299895 0.29228544 0.45417133 0.51636046 0.4971877
0.62574995 0.4415429 0.43565568 0.40024945 0.26077157 0.41318727 0.59948266 0.36639947
0.39665183 0.37215316 0.37591848 0.45488155 0.4755027 0.4267381 0.47459918 0.40543017
0.4186306 0.26508638 0.35295132 0.43920735 0.44355458 0.34322685 0.44970784 0.5070775
0.58306456 0.42012352 0.26786155 0.51390606 0.35635123 0.3985567 0.42838275 0.3840937
0.5133873 0.4359977 0.45259845 0.49962375 0.38780028 0.40549278 0.38370845 0.6227908
0.42346767 0.5046888 0.26515135 0.48203012 0.33412018 0.4510798 0.4099877 0.51025707
00000000: 75a9 c03e 3490 113f 584c f33e 8393 a53e
00000010: 1c2d c73e aa30 e03e c8ae b53e d282 fe3e
00000020: f271 983e 5e31 f13e 726d e23e 8f9d af3e
00000030: 70a6 953e 2589 e83e 3330 043f 638f fe3e
00000040: 2631 203f e911 e23e 430e df3e 7fed cc3e
00000050: da83 853e 488d d33e b277 193f b698 bb3e
00000060: f315 cb3e dc8a be3e 6378 c03e 3ce6 e83e
00000070: 1775 f33e 6b7d da3e aafe f23e 8b94 cf3e
00000080: c056 d63e 67b9 873e 09b6 b43e c9df e03e
00000090: 9619 e33e 6ebb af3e 1b40 e63e d5cf 013f
000000a0: b843 153f 6e1a d73e 2625 893e 598f 033f
000000b0: ab73 b63e a00f cc3e fc54 db3e eea7 c43e
000000c0: 5a6d 033f 173b df3e fcba e73e afce ff3e
000000d0: c28d c63e c09c cf3e 6f75 c43e 386f 1f3f
000000e0: c1d0 d83e 4933 013f ebc1 873e a7cc f63e
000000f0: cd11 ab3e eef3 e63e e8e9 d13e 35a0 023f

fc.0.weight f4 [2, 2560]
-0.01886137 0.004655987 0.0070672138 0.0025491226 0.0143074915 -0.016836584 -0.0040027546 0.010097809
0.011516573 0.0012319719 -0.011009979 0.013248712 0.0005463116 0.00082315854 -0.0010920422 0.01910709
-0.01439146 -0.011445878 0.01893434 -0.005271916 0.011726188 0.020632716 0.010388263 0.0021726931
0.0033915972 0.014588451 -0.010121811 0.008291783 -0.020534458 -0.0005020121 0.020281155 0.01856854
-0.0041027856 -0.017681278 -0.01250187 -0.014791483 0.013910575 0.0026640585 0.012541151 0.0034639784
0.024797555 0.005834703 0.008803502 0.012857468 0.0021248588 -0.010038329 0.022503864 0.0026535965
-0.008151713 0.007965557 0.013602069 -0.019437237 -0.0073469616 0.002370416 0.010092698 -0.007898508
-0.0039959755 0.0120153325 0.006152549 0.016445694 -0.021477794 0.013420724 0.0033454627 -0.012741115
-0.012674603 -0.02033745 -0.0005197164 -0.004216248 -0.005297363 -0.00292787 0.011260673 -0.0022466108
-0.0026498982 -0.0023957058 -0.020422336 -0.0032092768 -0.013501198 0.012379935 0.008547695 0.0008611957
-0.013833675 0.004380162 -0.01116306 -0.0022040124 0.02161064 0.012608708 0.015608363 -0.022548787
-0.015175321 0.014850984 -0.006284205 0.0116005875 -0.013628173 -0.014089963 0.020174557 0.0013353919
0.018093118 0.002227698 0.0051188986 0.021197988 0.007845431 0.015397216 -0.018538503 -0.0028304323
0.011546166 -0.0015470318 -0.0025963522 0.0062397025 -0.007323818 -0.00747529 -0.017082347 0.024229104
-0.018489327 -0.009995195 0.00943498 0.009805107 0.004236084 -0.0003834109 -0.006558348 -0.008675778
0.004828783 0.0004760851 -0.013103645 0.003904506 0.011541297 -0.015598064 0.010369194 0.018742284
0.016359959 0.005953449 -0.013370341 0.016460523 -0.001247979 -0.0074528125 0.0042560007 -0.01203504
0.020655375 0.0075965403 0.017829632 -0.012776701 -0.011744405 0.006674409 0.0038757573 0.0037261702
-0.023869269 0.017811792 -0.022806117 0.004887723 0.0032688375 -0.011476703 0.014225276 0.006011934
0.011835046 0.021951541 -0.0077299057 0.0005768944 0.0072657634 0.0017995095 0.01181763 -0.0073331133
0.025043862 0.008833638 0.0041816793 -0.026302334 0.025955928 -0.0012807061 0.00794061 -0.016727306
0.0064667915 0.017544553 0.0046511837 -0.019285219 0.0068224515 0.014430416 0.01001573 0.01792327
-0.0022446893 -0.0015879853 -0.012680845 -0.0060186135 -0.01860382 0.0030416767 0.014893644 -0.0054931543
-0.019803423 0.0070673586 -0.010258199 0.00045869363 0.009202411 -0.0114869205 -0.008045732 -0.013622211
0.023574512 -0.019660505 0.01764916 0.02177419 -0.0037932587 -0.0055928295 0.017851936 0.012096071
0.0019440267 -0.010906678 0.024201913 0.01359769 -0.022070002 0.0041727154 0.0041508004 -0.008962095
-0.012850973 -0.008999321 0.013539949 0.007230039 0.010930739 0.017171828 -0.005309116 0.021145659
-0.013527992 0.0032005063 0.007708118 -0.01459448 -0.0032669308 0.0091078775 0.011909645 0.020252982
-0.015695961 1.0248783e-05 0.01010515 0.008694452 -0.017990237 0.017273981 -0.010246249 -0.011767976
-0.0165906 0.0010795465 -0.011183372 0.027255058 -0.0032397332 0.020497348 0.020109097 -0.019135363
-0.02430646 -0.020568334 0.007280559 -0.0078538805 -0.012519796 0.021077212 -0.0030639835 -0.00019968835
0.0014847966 -0.0135217365 -0.020689417 -0.018594863 -0.020692429 0.012352667 -0.0069975336 -0.014230478
00000000: 2983 9abc 4091 983b 1694 e73b 2e0f 273b
00000010: f869 6a3c e0ec 89bc 8a29 83bb 4871 253c
00000020: 02b0 3c3c 1e7a a13a 3363 34bc 2011 593c
00000030: 5a36 0f3a 3cc9 573a db22 8fba 7986 9c3c
00000040: 29ca 6bbc 7e87 3bbc 301c 9b3c 09c0 acbb
00000050: 321f 403c f105 a93c 8833 2a3c be63 0e3b
00000060: 8f45 5e3b 6604 6f3c f4d5 25bc 42da 073c
00000070: e137 a8bc 7699 03ba aa24 a63c 0d1d 983c
00000080: a970 86bb 54d8 90bc a5d4 4cbc fa57 72bc
00000090: 2ee9 633c 7c97 2e3b 6679 4d3c ea03 633b
000000a0: 3e24 cb3c 0931 bf3b 903c 103c 21a8 523c
000000b0: 3741 0b3b ce77 24bc 065a b83c f6e7 2d3b
000000c0: c38e 05bc f881 023c 36db 5e3c d73a 9fbc
000000d0: c8be f0bb fb58 1b3b d85b 253c be68 01bc
000000e0: acf0 82bb f5db 443c 529b c93b 1fb9 863c
000000f0: 33f2 afbc 99e2 5b3c 8d3f 5b3b 1cc0 50bc
00000100: 23a9 4fbc b99a a6bc 943d 08ba 7428 8abb
00000110: 8095 adbb 82e1 3fbb b07e 383c e03b 13bb
00000120: eaa9 2dbb 4601 1dbb be4c a7bc bb52 52bb
00000130: 2134 5dbc 36d5 4a3c a20b 0c3c ddc1 613a
00000140: a3a6 62bc 7687 8f3b 44e5 36bc 3171 10bb
00000150: cc08 b13c c194 4e3c 38ba 7f3c 3cb8 b8bc
00000160: e9a1 78bc 8b51 733c bbeb cdbb 6410 3e3c
00000170: b348 5fbc 97d9 66bc 1d45 a53c 5108 af3a
00000180: 0538 943c 92fe 113b 6fbc a73b 67a7 ad3c
00000190: 1f8a 003c 9b44 7c3c 0fde 97bc c67e 39bb
000001a0: 212c 3d3c c6c5 caba 9027 2abb 6b76 cc3b
000001b0: a3fc efbb 47f3 f4bb 47f0 8bbc 1d7c c63c
000001c0: ee76 97bc e3c2 23bc 2d95 1a3c 99a5 203c
000001d0: d9ce 8a3b 8a04 c9b9 69e7 d6bb da24 0ebc
000001e0: c53a 9e3b 0f9b f939 acb0 56bc bee2 7f3b
000001f0: b517 3d3c 068f 7fbc 8de3 293c 6b89 993c
00000200: 5205 863c 2615 c33b 460f 5bbc 38d8 863c
00000210: 3a93 a3ba b936 f4bb ec75 8b3b 9e2e 45bc
00000220: 7635 a93c 66ec f83b 730f 923c 5e55 51bc
00000230: 9b6b 40bc 00b5 da3b 6b00 7e3b c332 743b
00000240: 7c89 c3bc 09ea 913c e5d3 babc 3129 a03b
00000250: fe39 563b c808 3cbc 2211 693c c2ff c43b
00000260: c8e7 413c b8d3 b33c 264b fdbb ba3a 173a
00000270: a415 ee3b 85dd eb3a bc9e 413c 9d4a f0bb
00000280: c928 cd3c f7ba 103c 7806 893b fe77 d7bc
00000290: 87a1 d43c 5edd a7ba 5519 023c b407 89bc
000002a0: 61e7 d33b 98b9 8f3c f568 983b 09fc 9dbc
000002b0: df8e df3b 8d6d 6c3c 0419 243c d2d3 923c
000002c0: a31b 13bb f223 d0ba 52c3 4fbc ca37 c5bb
000002d0: 0a67 98bc de56 473b 7804 743c ebff b3bb
000002e0: ca3a a2bc 4d95 e73b 0112 28bc d17c f039
000002f0: b6c5 163c a333 3cbc 3fd2 03bc b22f 5fbc
00000300: 561f c13c 110f a1bc f994 903c c95f b23c
00000310: 5298 78bb 0e44 b7bb 393e 923c 992e 463c
00000320: b6ce fe3a ecb1 32bc 1743 c63c d8c8 5e3c
00000330: 26cc b4bc 46bb 883b 7003 883b c0d5 12bc
00000340: e38c 52bc e371 13bc aad6 5d3c f7e9 ec3b
00000350: d816 333c efab 8c3c 18f8 adbb a939 ad3c
00000360: 83a4 5dbc 96bf 513b 6194 fc3b b01d 6fbc
00000370: 011a 56bb 3539 153c ac20 433c 95e9 a53c
00000380: d194 80bc 30f2 2b37 1290 253c 2d73 0e3c
00000390: 4360 93bc 2a82 8d3c e2df 27bc 78ce 40bc
000003a0: 03e9 87bc 927f 8d3a 763a 37bc 0046 df3c
000003b0: b451 54bb 0eea a73c d5bb a43c c4c1 9cbc
000003c0: 571e c7bc ec7e a8bc c191 ee3b 90ad 00bc
000003d0: d51f 4dbc 1eaa ac3c 1dcd 48bb 6f63 51b9
000003e0: 829d c23a 468a 5dbc da7c a9bc 4154 98bc
000003f0: 2b83 a9bc d762 4a3c 914b e5bb f326 69bc

fc.0.bias f4 [2]
-0.0033894738 0.00629524
00000000: ef21 5ebb 4d48 ce3b
